weightsMLP/DeepEnsembles.pt (torch_old, 308316 bytes, 50 tensors)

net.0.weight f4 [32, 6]
0	0xbd8dd6af	-0.06925713
1	0x3c8978b5	0.01678119
2	0x3ec12056	0.37719983
3	0x3e72ff9b	0.23730318
4	0xbd815902	-0.06315805
5	0x3ed41366	0.4142105
6	0xbde757ba	-0.112960294
7	0x3de37557	0.11106365
8	0x3eb62817	0.3557746
9	0xbea20c9e	-0.3165025
10	0x3d3ba0f4	0.045807794
11	0xbf1b87cf	-0.607541
12	0xbcd7c8e7	-0.026340915
13	0x3b0075af	0.0019601395
14	0xbf038429	-0.51373535
15	0xbf177ceb	-0.59174985
16	0x3becc0a8	0.007225115
17	0xbf7c6989	-0.98598534
18	0xbe1700b3	-0.1474636
19	0xba6c8ffb	-0.00090241403
20	0x3fc58657	1.5431622
21	0xbe778e1c	-0.24175304
22	0xbb5c4540	-0.0033610612
23	0x3e67c6b7	0.22634397
24	0xbd79bbb3	-0.06097002
25	0x3d8f109a	0.06985588
26	0xbdce4be0	-0.10073066
27	0x3f40c0c6	0.7529415
28	0x3bec7f5d	0.0072173313
29	0xbf8678c2	-1.0505602
30	0x3dd95f82	0.1061392
31	0x3d13a213	0.036043238
32	0xbf333300	-0.69999695
33	0xbf26e6a6	-0.6519569
34	0x3cbf9ac4	0.023389228
35	0x3e908607	0.28227255
36	0x3cd8b508	0.02645351
37	0x3b6c875f	0.003609143
38	0xbdb0aaa4	-0.08626297
39	0xbf2374ee	-0.63850296
40	0x3bb7e9ce	0.0056125885
41	0x3f685ad6	0.90763605
42	0x3d8f8b5a	0.07009001
43	0xbcd49226	-0.025948595
44	0xbed93670	-0.42424345
45	0xbe5cfba0	-0.21580362
46	0xbcbfe5b4	-0.02342496
47	0x3f49b5b5	0.7879289
48	0x3c57740a	0.013150224
49	0x3e99a430	0.30008078
50	0x3d7c691c	0.061623678
51	0xbe9284ba	-0.28616887
52	0xbcebaec8	-0.028769866
53	0xbe4dac15	-0.20085175
54	0xbb86352d	-0.0040956945
55	0x3ce9e35e	0.0285508
56	0xbf1b74fb	-0.60725373
57	0x3f568502	0.83796704
58	0x3d1c9e72	0.038237043
59	0xbf6e6baa	-0.9313303
60	0x3e8a6ade	0.27034658
61	0x3ec8490f	0.3911824
62	0xbe82d4a7	-0.25552866
63	0xbe0da1b2	-0.13831213
64	0xbbcec7a1	-0.0063104187
65	0x3d9ee33f	0.077581875
66	0x3d4c4efd	0.049880017
67	0x3b3de8e8	0.0028977934
68	0x3f622bc8	0.88348055
69	0x3fab822c	1.33991
70	0xbb277723	-0.0025553189
71	0x3eeca184	0.46216977
72	0xbe558378	-0.20850933
73	0x3cd494ee	0.025949921
74	0xbf6f9be1	-0.9359723
75	0x3e464c53	0.19365053
76	0x3bb96592	0.00565786
77	0x3e96ecb6	0.2947747
78	0x3aadee6f	0.0013269911
79	0xbd85418d	-0.065066434
80	0x3ec3aa2a	0.38215762
81	0xbeb97d2d	-0.36228314
82	0x3bd9b847	0.006644282
83	0xbec053d2	-0.3756395
84	0xbe0a2077	-0.13488947
85	0xbe2f3151	-0.17108656
86	0xbf1384da	-0.5762459
87	0xbf111dc1	-0.56686026
88	0x3d82d56c	0.06388363
89	0xbe22b863	-0.1589065
90	0xbe8f4123	-0.27979383
91	0x3dbd911c	0.09256193
92	0xbea511b8	-0.3224008
93	0xbdab3b0b	-0.08360871
94	0x3bdf8814	0.0068216417
95	0x3cbfcf45	0.023414264
96	0xbcce752d	-0.025202358
97	0x3a806881	0.000979677
98	0x3f1096fb	0.5648038
99	0xbf490b06	-0.78532445
100	0xbc43a23a	-0.011940533
101	0xbf515521	-0.8177052
102	0x3daa8816	0.083267376
103	0xbf00a517	-0.5025191
104	0xbe8786e8	-0.26470113
105	0xbe06d3da	-0.13166752
106	0x3d144e76	0.03620764
107	0xbdfc994f	-0.12333929
108	0x3e23269c	0.15932697
109	0x3d1bf491	0.038075034
110	0xbf44f0f9	-0.76930195
111	0xbea622f1	-0.32448533
112	0xbc6865c7	-0.014184422
113	0x3c6bdba9	0.014395633
114	0xbe8571d8	-0.26063418
115	0xbec8786d	-0.39154378
116	0x3e802124	0.25025284
117	0x3da8587f	0.08220004
118	0xbcef61de	-0.029221471
119	0xbc9b1eb3	-0.018935537
120	0x3e9744ee	0.29544777
121	0xbda002b9	-0.07813019
122	0x3dd783d5	0.10523192
123	0x3ca38cab	0.019964537
124	0xbc6963fc	-0.01424503
125	0xbd811d1e	-0.06304382
126	0x3d676c3b	0.0564997
127	0xbb9c948a	-0.0047784494
128	0x3f78c7ce	0.9717988
129	0xbe9e94eb	-0.3097299
130	0xbc6f678a	-0.014612088
131	0xbe8ec401	-0.27883914
132	0x3e298a4d	0.16556664
133	0x3c638d29	0.013888636
134	0x3f4ede4b	0.8080794
135	0xbe96d49e	-0.2945909
136	0x3c5f4c58	0.013629042
137	0xbe951acd	-0.2912201
138	0xbd93cf78	-0.07217306
139	0x3ee99bdb	0.4562672
140	0x3e73936e	0.23786709
141	0x3dbfa5d8	0.09357804
142	0x3b9907fe	0.004670142
143	0x3d931fa4	0.07183769
144	0xbc8057f0	-0.015666932
145	0xbcaef4cc	-0.021356963
146	0xbf303925	-0.68837196
147	0x3dabf65a	0.08396597
148	0x3ba59ed0	0.0050543323
149	0xbf34091c	-0.703264
150	0x3ddadb67	0.10686379
151	0x3e378ee9	0.1792561
152	0xbe5ff6bd	-0.21871467
153	0xbed4a830	-0.41534567
154	0xbda32c9e	-0.079674944
155	0xbe98a5b1	-0.29813913
156	0x3c904519	0.017611073
157	0xbe170b59	-0.14750423
158	0x3f12eef5	0.5739587
159	0xbe4769b0	-0.1947391
160	0x3b9a22ac	0.0047038402
161	0xbf4fec95	-0.8122037
162	0x3dd50a77	0.10402387
163	0x3b38575b	0.002812824
164	0xbd9eb69d	-0.077496745
165	0x3e9f8811	0.31158498
166	0x3be1370a	0.0068730162
167	0xbf102b51	-0.56316096
168	0x3cebe46d	0.028795445
169	0xbc74840d	-0.0149240615
170	0x3ea1bb4d	0.31588212
171	0x3f5c9213	0.8616039
172	0x3bfcab90	0.0077108815
173	0x3f83c813	1.0295433
174	0xbdb0f442	-0.086403385
175	0xbdc54178	-0.09631628
176	0x3e33eded	0.1757123
177	0xbed3c871	-0.41363862
178	0xbbec85e6	-0.0072181104
179	0x3d43f260	0.04783857
180	0x3e218c4e	0.15776178
181	0x3d2c577e	0.042075627
182	0x3f833118	1.0249357
183	0x3ec9f441	0.39444163
184	0x3c8d4014	0.017242469
185	0xbe196d91	-0.14983203
186	0x3ba3dc8e	0.0050006574
187	0x3c848930	0.016178697
188	0x3f26025d	0.64847356
189	0x3d928ddf	0.07155966
190	0xbb83d05f	-0.0040226425
191	0xbf67fe60	-0.9062252

net.0.bias f4 [32]
0	0xbeccea30	-0.4002242
1	0xbf319b43	-0.69377536
2	0xbf26dedb	-0.651838
3	0xbf1b84fd	-0.607498
4	0xbed69b7e	-0.41915506
5	0xbf04e47e	-0.5191115
6	0xbee25407	-0.44204733
7	0x3efb7fcf	0.49120948
8	0xbf82c1c2	-1.021538
9	0xbdde652f	-0.10859143
10	0xbdc632cf	-0.0967766
11	0xbf339d14	-0.7016156
12	0xbfc667fe	-1.5500486
13	0xbf83ffe4	-1.0312467
14	0xbfd9777b	-1.6989588
15	0x3eac671d	0.3367242
16	0xbd41b02a	-0.047287144
17	0xbf25eeb6	-0.6481737
18	0xbf9548cc	-1.1662841
19	0x3dbe3573	0.092875384
20	0xbead88f6	-0.33893555
21	0x3ddd1b13	0.107961796
22	0xbf89a105	-1.0752264
23	0x3efffdff	0.4999847
24	0x3f34fb48	0.70695925
25	0xbf73f110	-0.9528971
26	0xbfa04194	-1.2520013
27	0x3d62af86	0.055343173
28	0xbe4417ff	-0.19149779
29	0xbf83315e	-1.0249441
30	0xbf646cd9	-0.8922859
31	0x3ebfcf5a	0.37462884

net.2.weight f4 [64, 32]
0	0xbef30b50	-0.47469568
1	0xbdbcd658	-0.0922057
2	0x3e87ade3	0.26499853
3	0xbe6e4d96	-0.23271784
4	0xbed5ea66	-0.41780394
5	0xbe245fbf	-0.16052149
6	0xbea59279	-0.32338312
7	0xbe5f6b28	-0.2181822
8	0xbe14865e	-0.14504382
9	0xbd5eb1d4	-0.05436881
10	0xbe37650e	-0.17909643
11	0xbe03093e	-0.12796494
12	0xbef08fe3	-0.46984777
13	0x3e498827	0.19680844
14	0xbf1812a9	-0.59403473
15	0x3ca45f45	0.02006496
16	0x3e1f5600	0.1556015
17	0xbdd353db	-0.103187285
18	0x3d964a22	0.073383585
19	0xbe8323b2	-0.2561317
20	0xbce47158	-0.027886078
21	0xbf0a3989	-0.5399404
22	0xbde070ec	-0.10959038
23	0xbf0e795b	-0.55653924
24	0x3db3c6d6	0.08778159
25	0xbdc616cb	-0.09672316
26	0x3e08bb27	0.13352643
27	0x3beeb539	0.007284787
28	0xbead3976	-0.33832902
29	0xbf3f3de1	-0.74703795
30	0xbeef2083	-0.46704492
31	0xbdf28754	-0.11842218
32	0xbe76bbc6	-0.24095067
33	0xbe3bfa09	-0.183571
34	0xbe01ddca	-0.12682262
35	0xbf4b8052	-0.79492676
36	0xbf10cab0	-0.56559277
37	0xbcac93be	-0.021066543
38	0xbdf6d009	-0.12051398
39	0xbf6c73e4	-0.92364335
40	0xbb843755	-0.0040349164
41	0xbf462a4d	-0.77408296
42	0x3def4564	0.11683157
43	0xbf894fcd	-1.0727478
44	0xbe06e1c5	-0.13172062
45	0xbda7943b	-0.081825696
46	0xbd49b7e1	-0.049247626
47	0xbef209b2	-0.47273022
48	0x3e1c4d4c	0.15263861
49	0x3c5e0e08	0.01355315
50	0xbb4bc984	-0.0031095454
51	0x3d86df5a	0.0658557
52	0x3ed757d3	0.42059192
53	0xbd1a0bf7	-0.037609067
54	0x3d144286	0.036196254
55	0xbe1e2131	-0.15442349
56	0x3d1f4678	0.038885564
57	0x3e5a93e5	0.2134548
58	0x3e200b3f	0.1562929
59	0x3e1ee7d3	0.15518121
60	0xbe843c42	-0.25827223
61	0xbd2868e9	-0.041115675
62	0xbf1fc797	-0.62413925
63	0x3d754680	0.059881687
64	0xbe1634cf	-0.14668582
65	0xbce9a598	-0.028521344
66	0xbd17c1ec	-0.037050173
67	0x3dddb956	0.10826366
68	0x3c3a63c6	0.011376327
69	0xbdbd80b6	-0.09253065
70	0x3cb18be8	0.021673158
71	0xbe34973e	-0.1763582
72	0xbdc85737	-0.0978226
73	0x3de26ccb	0.11055907
74	0xbe1eb688	-0.15499318
75	0xbd0de259	-0.03463969
76	0x3dbc489a	0.09193535
77	0x3e29bb41	0.16575338
78	0x3d9de15e	0.07709001
79	0x3daa5f9a	0.08319016
80	0xbda5ca02	-0.080951706
81	0xbe1af422	-0.15132192
82	0xbd906ccb	-0.070520006
83	0xbe26eabd	-0.16300483
84	0xbe604f73	-0.21905307
85	0xbd8a567c	-0.06754777
86	0x3d45b9a3	0.04827274
87	0xbe052f6e	-0.13006374
88	0xbe0a3a89	-0.13498892
89	0xbd3e1add	-0.046412338
90	0x3d89c5ae	0.067271575
91	0xbdd30d6e	-0.10305296
92	0xbda1a59f	-0.07892918
93	0x3dca16ca	0.09867628
94	0xbe3583f8	-0.17726123
95	0x3dad421b	0.08459874
96	0xbe91e372	-0.2849384
97	0x3da5bb3b	0.08092352
98	0xbf190648	-0.5977521
99	0xbe677b01	-0.22605516
100	0xbea53ebf	-0.32274434
101	0xbed3d734	-0.41375124
102	0xbec81c48	-0.39084077
103	0x3ed323d5	0.41238275
104	0x3e3732cf	0.17890476
105	0x3d988c05	0.074485816
106	0xbd368c9d	-0.044567693
107	0x3f02bf85	0.51073486
108	0xbfd97a70	-1.699049
109	0xbefebf82	-0.49755484
110	0xbf4b3ab1	-0.7938643
111	0x3d8e8c90	0.06960404
112	0xbf03d4a5	-0.51496345
113	0xbd3ef091	-0.04661614
114	0xbe164f7d	-0.1467876
115	0xbca6c2eb	-0.020356616
116	0x3dd1f934	0.1025261
117	0xbdabba18	-0.08385104
118	0x3e03373b	0.12814038
119	0x3d8796d8	0.06620568
120	0xbf2e22e5	-0.68021995
121	0xbdebe437	-0.11518138
122	0xbe53da88	-0.20688832
123	0xbdfa2341	-0.122137554
124	0x3e9cd49c	0.30630958
125	0xbdef4895	-0.11683766
126	0x3d4a4091	0.04937798
127	0xbf2674f9	-0.65022236
128	0xbd217a07	-0.039423015
129	0xbe82c4ce	-0.25540775
130	0xbe868ad8	-0.26277804
131	0xbdb86193	-0.09002986
132	0xbd0c3569	-0.034230623
133	0xbd975b54	-0.07390466
134	0xbe89be95	-0.26903215
135	0xbed29ffe	-0.4113769
136	0xbe6d7123	-0.2318769
137	0xbc6bff1f	-0.014404087
138	0xbc06c495	-0.00822558
139	0xbdfac6bd	-0.122449376
140	0x3e012d51	0.12614943
141	0x3e97d05d	0.29651156
142	0xbdeba8fc	-0.115068406
143	0xbdb95b39	-0.090506025
144	0x3d1aad8a	0.037763156
145	0x3de951d1	0.11392558
146	0xbe5919d5	-0.2120126
147	0xbe0f23dd	-0.13978525
148	0xbdd618da	-0.10453959
149	0xbe355a92	-0.17710331
150	0xbe9177cd	-0.28411713
151	0xbdcc5a2f	-0.09978139
152	0x3ca1b144	0.019737847
153	0xbdf5789a	-0.119858935
154	0xbd3826c1	-0.044958834
155	0x3d3fac98	0.046795458
156	0xbdfba58e	-0.122874364
157	0xbe508dfe	-0.20366666
158	0xbe1e52b7	-0.1546124
159	0xbe67610c	-0.22595614
160	0xbe928165	-0.28614345
161	0xbe451047	-0.1924449
162	0xbe4eefc0	-0.20208645
163	0x3c0d240d	0.008614552
164	0xbe281db1	-0.16417576
165	0xbd521feb	-0.05129997
166	0xbd8ea4f9	-0.0696506
167	0xbdfbffad	-0.12304626
168	0xbe1db149	-0.1539966
169	0xbdf19ffd	-0.117980935
170	0xbe53673b	-0.20644848
171	0xbe7cac56	-0.24675116
172	0xbe2a5626	-0.16634426
173	0xbdcc5369	-0.09976847
174	0xbe096907	-0.13418971
175	0xbe85492a	-0.26032382
176	0xbeeb296e	-0.45930046
177	0x3cd57d9b	0.02606087
178	0x3da9308d	0.082612135
179	0xbe424acb	-0.18973844
180	0x3d658259	0.056032512
181	0xbe08ee48	-0.13372147
182	0xbdbff92e	-0.09373699
183	0xbe15f58f	-0.14644454
184	0xbe12a866	-0.14322051
185	0xbdccfaba	-0.1000876
186	0xbd971ec4	-0.07378915
187	0xbf146d8d	-0.5797966
188	0x3e1d642a	0.15370241
189	0x3dc59c3a	0.096489385
190	0xbe71e7ee	-0.2362363
191	0xbbc0a8be	-0.0058794906
192	0x3d3aba55	0.045587856
193	0x3e407830	0.18795848
194	0xbebf1847	-0.3732321
195	0x3f0f105b	0.5588433
196	0xbe6b24b7	-0.22963224
197	0xbe98cc65	-0.2984344
198	0xbf37df35	-0.7182496
199	0xbe07386b	-0.13205115
200	0x3db82aae	0.089925155
201	0xbf651d31	-0.8949767
202	0xbdd4ad59	-0.10384626
203	0x3efb782b	0.49115118
204	0xbee1131c	-0.43959892
205	0xbe6a5101	-0.22882463
206	0xbdaeee4e	-0.08541547
207	0x3ca71dc9	0.020399945
208	0xbf10fb4e	-0.5663346
209	0x3d986a03	0.07442095
210	0xbd29990b	-0.04140572
211	0x3e4271c1	0.18988706
212	0xbdb4b2ef	-0.088231914
213	0xbfa443c1	-1.2833177
214	0xbca7d2f0	-0.020486325
215	0x3d0e6af5	0.03476997
216	0xbf82e45b	-1.0225939
217	0xbecf78a6	-0.40521735
218	0x3e790884	0.24319655
219	0xbee36d4e	-0.4441933
220	0x3da857af	0.08219849
221	0x3e0e1d04	0.13878256
222	0xbdc4a9af	-0.09602677
223	0x3cc1fd42	0.023680333
224	0xbe066284	-0.13123518
225	0xbca1aa23	-0.019734448
226	0xb9987068	-0.00029075448
227	0xbdf30e02	-0.11867906
228	0xbd6450f2	-0.055741258
229	0xbe1a32ed	-0.15058489
230	0xbe28b245	-0.16474254
231	0x3bbcaf24	0.005758183
232	0xbd08f3e4	-0.033435717
233	0xbcb9e6ba	-0.022693027
234	0x3b217bf6	0.0024640537
235	0xbe0d5dc3	-0.13805299
236	0x3d4dfc3d	0.05028938
237	0xbe3baeb5	-0.18328364
238	0xbe842f2c	-0.2581724
239	0xbe82ce62	-0.25548083
240	0xbe3aa3e9	-0.1822659
241	0xbe45ae05	-0.19304664
242	0x3d0befdb	0.03416429
243	0xbec6c7d3	-0.3882433
244	0x3db0b777	0.08628743
245	0x3e168279	0.14698209
246	0x3c848d0e	0.016180541
247	0xbd4f5a80	-0.050623417
248	0xbe078488	-0.1323415
249	0xbdd39f9d	-0.10333178
250	0xbe58d3fd	-0.21174617
251	0xbe4cfa72	-0.20017412
252	0xbce234ce	-0.02761307
253	0xbe614899	-0.2200035
254	0x3b9c87de	0.004776939
255	0x3d8e520d	0.06949244

net.2.bias f4 [64]
0	0xbf016a93	-0.50553244
1	0x3ce06835	0.02739344
2	0xbe5e6c43	-0.21720986
3	0x3e3c7453	0.18403749
4	0x3d88ddd0	0.066829324
5	0xbdf4b4f8	-0.119485795
6	0xbebf456e	-0.37357658
7	0xbe95d759	-0.2926586
8	0x3ebc6c3e	0.36801332
9	0x3d283fac	0.041076347
10	0xbd85d7d4	-0.065353066
11	0x3c03d0f8	0.0080454275
12	0xbe27d4f9	-0.16389836
13	0xbe91fd01	-0.2851334
14	0xbddaeca0	-0.10689664
15	0xbf0f5e93	-0.56003684
16	0xbde5f107	-0.11227613
17	0xbe84dcf6	-0.2594983
18	0xbe357672	-0.17720965
19	0xbe2e4c78	-0.17021358
20	0xbe73f6ed	-0.23824663
21	0xbeb8edd4	-0.36118948
22	0xbdbd1fbe	-0.0923457
23	0xbe82c025	-0.2553722
24	0xbeb4df28	-0.35326505
25	0xbd983582	-0.07432081
26	0xbf080878	-0.5313792
27	0xbdde849d	-0.10865138
28	0xbd93a0c3	-0.07208397
29	0xbe138c54	-0.14409
30	0x3c9dabb7	0.01924692
31	0x3ee95c1a	0.4557808
32	0xbe58ed34	-0.21184236
33	0xbe1bfc11	-0.15232874
34	0xbea08584	-0.31351864
35	0x3dd7d211	0.10538114
36	0xbe85dfca	-0.261473
37	0xbd9579e0	-0.072986364
38	0x3d1b581c	0.037925825
39	0x3e276bb2	0.16349676
40	0x3db65aad	0.08904014
41	0x3e74c6c7	0.23903953
42	0xbd03a403	-0.032138836
43	0xbed93d1d	-0.42429438
44	0xbd87ac4a	-0.066246584
45	0x3da64bb9	0.08119912
46	0xbe6be188	-0.23035252
47	0xbee04b5f	-0.43807504
48	0xbe4bafd0	-0.19891286
49	0xbe1981a0	-0.14990854
50	0xbcf6e9cb	-0.030140778
51	0xbda32c10	-0.07967389
52	0xbda8e0fe	-0.08246039
53	0xbe5d5582	-0.2161465
54	0xbaa0907f	-0.0012250094
55	0x3d21aca3	0.03947128
56	0x3e8a07c8	0.26959062
57	0x3e154602	0.14577487
58	0x3d607d2f	0.054806884
59	0x3ba1cc84	0.0049377102
60	0x3e0fec91	0.14055087
61	0xbe446bf5	-0.19181807
62	0x3d1ab3c5	0.037769098
63	0xbe14b7af	-0.14523195

net.4.weight f4 [128, 64]
0	0x3d34d007	0.044143703
1	0xbeaff27b	-0.34364685
2	0x3dd569ef	0.10420596
3	0xbe1cc3cb	-0.15309064
4	0xbdcff419	-0.1015398
5	0xbca629d9	-0.020283626
6	0x3c7f9a21	0.015600712
7	0x3d346e25	0.044050355
8	0x3d78765b	0.060659748
9	0xbd7491d4	-0.059709385
10	0xbd751c94	-0.059841707
11	0xbc1ac9cd	-0.009447527
12	0x3dc9c06c	0.09851155
13	0xbd933204	-0.07187274
14	0xbec9ca25	-0.39412037
15	0x3c87bc02	0.016569141
16	0x3d6c144b	0.05763654
17	0xbd4e1e08	-0.05032161
18	0x3dae6c69	0.08516771
19	0xbd5b310d	-0.053513575
20	0xbe1ff602	-0.15621188
21	0xbdb325ed	-0.08747468
22	0xba51f135	-0.000800866
23	0xbc2b4292	-0.010452883
24	0xbd2b194e	-0.04177218
25	0xbe1c4219	-0.15259589
26	0xbacb8c36	-0.0015529457
27	0xbb3264ac	-0.002722065
28	0xbe490d55	-0.19633992
29	0xbdf3856d	-0.11890683
30	0xbe3e0540	-0.1855669
31	0xbe73d42a	-0.23811403
32	0xbe43f777	-0.19137369
33	0x3ad2fd1c	0.0016097161
34	0x3c559e77	0.013038269
35	0x3d2cdd70	0.042203367
36	0xbdbee05a	-0.093201354
37	0xbda434d7	-0.08017891
38	0x3dd29adf	0.102834456
39	0x3e47eea7	0.19524632
40	0x3d960589	0.073252745
41	0x3e653c0a	0.22386184
42	0x3ca49dae	0.020094719
43	0xbd618a52	-0.055063553
44	0xbe3b9782	-0.18319514
45	0xbe5d9d2a	-0.21641985
46	0x3d90b9c0	0.07066679
47	0xbd30e38a	-0.04318575
48	0x3b1421fa	0.002260326
49	0x3d9ee444	0.07758382
50	0xbd9ecdf5	-0.07754127
51	0xbe57a22e	-0.2105796
52	0xbdc69eaf	-0.09698235
53	0x3d6dc451	0.05804855
54	0xbe84179b	-0.2579926
55	0xbe731c06	-0.23741159
56	0xbcb8581f	-0.022502957
57	0xbe33bdbc	-0.17552847
58	0xbe1acf94	-0.15118247
59	0x3d026495	0.031834204
60	0xbdec7e01	-0.11547471
61	0xbd26da84	-0.040735736
62	0xbe2c2598	-0.16811216
63	0xbd50ec9a	-0.05100689
64	0xbe6f3e19	-0.23363532
65	0xbe6f2955	-0.2335561
66	0xbd396482	-0.045261867
67	0xbd903a15	-0.07042328
68	0x3d81f350	0.06345236
69	0xbdbc4a4d	-0.09193859
70	0xbd9df1a3	-0.07712104
71	0xbe06cab4	-0.13163263
72	0xbe1f545c	-0.15559524
73	0x3ce32324	0.027726717
74	0xbda597ae	-0.08085571
75	0x3c5311f5	0.012882699
76	0xbdafb195	-0.08578793
77	0xbdc43d44	-0.09581998
78	0x3d84836a	0.06470378
79	0xbd47cb78	-0.048778027
80	0xbe3a9340	-0.18220234
81	0xbd4e46a5	-0.05036034
82	0xbe13e889	-0.14444174
83	0xbc74576a	-0.014913419
84	0xbdf0bf69	-0.117552586
85	0xbd365ba1	-0.044520978
86	0xbd80cd97	-0.06289213
87	0xbe0de50c	-0.13856906
88	0xbdf395c2	-0.118937984
89	0x3d12e8ae	0.035866432
90	0xbe9559dc	-0.2917012
91	0x3c3f850d	0.011689437
92	0x3cc4f960	0.024044693
93	0xbd9c367d	-0.0762758
94	0xbe0b4baf	-0.1360309
95	0xbe8cecc3	-0.27524385
96	0x3ca25fa2	0.019820992
97	0x3dac52de	0.08414243
98	0x3d30753a	0.043080546
99	0x3d3151a3	0.043290745
100	0xbe13405f	-0.14380024
101	0xbda9fe98	-0.08300513
102	0xbdae8cd0	-0.085229516
103	0x3ba1389f	0.00492008
104	0x3d628251	0.05530006
105	0xbe867612	-0.26261955
106	0xbebbdf6b	-0.36693892
107	0xbe86b191	-0.26307347
108	0x3e32d9d4	0.17465907
109	0xbd12c932	-0.035836406
110	0xbdf4a3d5	-0.11945311
111	0xbb73257a	-0.0037101195
112	0x3d047798	0.032340616
113	0xbdc3ea17	-0.095661335
114	0xbe0cca6c	-0.13749093
115	0xbd8bb2c3	-0.068212055
116	0xbb36e000	-0.002790451
117	0xbe0cb7d0	-0.13741994
118	0xbebf0621	-0.37309363
119	0xbea386df	-0.31938836
120	0x3d227015	0.03965767
121	0xbea4111d	-0.32044306
122	0xbc60a744	-0.013711754
123	0x3c0c9331	0.008580015
124	0xbcd9c5a7	-0.026583506
125	0xbda1ad1f	-0.07894348
126	0x3d010079	0.03149459
127	0xbce27b84	-0.027646787
128	0xbd589918	-0.052880377
129	0xbdb5477b	-0.088515244
130	0x3d6e6598	0.058202356
131	0x3d29825c	0.041384086
132	0xbda5547c	-0.08072755
133	0x3e109897	0.14120708
134	0xbdb07b86	-0.0861731
135	0x3e16fca9	0.1474482
136	0xbd09af53	-0.033614468
137	0x3d4f84cc	0.050663754
138	0xbe2c121e	-0.16803786
139	0xbd92cb72	-0.0716771
140	0xbdb49904	-0.08818248
141	0x3d35426c	0.044252798
142	0x3dd2aa4a	0.10286386
143	0xbc987905	-0.018612394
144	0xbca2406f	-0.019806115
145	0xbe0f8ea7	-0.14019261
146	0xbd3a1c66	-0.04543724
147	0xbd2e2eb0	-0.042524993
148	0x3c9f28a2	0.019428555
149	0xbd911dd5	-0.07085768
150	0x3de82580	0.113352776
151	0xbc5eeea0	-0.013606697
152	0xbe20e930	-0.15713954
153	0xbd978650	-0.07398665
154	0x3c93f185	0.018059501
155	0x3d3696e7	0.044577505
156	0xbe379d23	-0.17931037
157	0xbe05f438	-0.13081443
158	0xbc9bdb4f	-0.019025473
159	0xbd9d4e84	-0.07680991
160	0xbd212c2a	-0.03934876
161	0xbdad92a5	-0.08475236
162	0xbd9b9eb2	-0.07598628
163	0x3c5e4320	0.013565809
164	0xbe0a66ab	-0.13515727
165	0x3d43a581	0.04776526
166	0xbdde7557	-0.108622245
167	0xbd822507	-0.06354719
168	0xbd40a513	-0.047032427
169	0x3d00f7c2	0.03148628
170	0xbd5f5e00	-0.054533005
171	0xbe3ec242	-0.18628791
172	0x3c55338c	0.013012778
173	0x3c5513fe	0.013005255
174	0xbe01fe1a	-0.12694588
175	0xbdcc23d0	-0.09967768
176	0xbc9ddcee	-0.019270387
177	0xbdf2e106	-0.11859326
178	0xbdf487a0	-0.11939931
179	0xbdf02de6	-0.117275044
180	0xbdf8a4d2	-0.12140812
181	0x3d459ca8	0.048245102
182	0xbdd1bf07	-0.10241514
183	0xbe0e5dd6	-0.13902983
184	0xbd901a14	-0.07036224
185	0xbd1a26f3	-0.0376348
186	0x3d2675e8	0.040639788
187	0xbc58512d	-0.013202948
188	0x3d155733	0.036460113
189	0xbe0cc762	-0.13747934
190	0x3d3c00b3	0.045899104
191	0xbddff180	-0.10934734
192	0xbd69d7dd	-0.05709063
193	0xbd2d1e0f	-0.042264994
194	0xbd8c2b18	-0.06844157
195	0xbe46d831	-0.19418408
196	0x3d1c88d0	0.038216412
197	0xbd23fc89	-0.04003576
198	0xbcdd3956	-0.027004879
199	0x3ccc1a26	0.024914812
200	0x3db13646	0.0865293
201	0xbdd9e117	-0.106386356
202	0xbe5f8da4	-0.21831375
203	0x3d953d02	0.07287027
204	0xbb765e09	-0.003759267
205	0x3dc30d1e	0.09523986
206	0xbe35d7bf	-0.17758082
207	0x3db68330	0.08911741
208	0xbd7f05a3	-0.062261235
209	0x3d4cd9f7	0.050012555
210	0xbe2879f9	-0.16452779
211	0xbe13ddbe	-0.14440057
212	0xbe0f13d6	-0.1397241
213	0xbda168c8	-0.078813136
214	0x3d4cffab	0.05004851
215	0xbdf90c2c	-0.12160525
216	0x3df5dd6a	0.12005122
217	0x3d6849da	0.056711055
218	0xbe078fb8	-0.13238418
219	0x3d352028	0.04422012
220	0xbe39e279	-0.18152799
221	0xbe14742f	-0.14497446
222	0xbe2a4d1b	-0.16630976
223	0xbdc0505f	-0.093903296
224	0xbd849cc9	-0.06475217
225	0x3d3935f2	0.045217462
226	0xbe238ba2	-0.15971234
227	0x3e015e91	0.1263373
228	0xbd24dbd0	-0.040248692
229	0x3d8fd9a0	0.070239305
230	0xbd8e20a5	-0.0693982
231	0xbd96359b	-0.07334443
232	0x3cf5a193	0.029984271
233	0xbdef96da	-0.116986945
234	0xbd9b817c	-0.075930566
235	0x3d2fec10	0.042949736
236	0xbdb4de0e	-0.08831416
237	0xbde60402	-0.11231233
238	0xbe72b427	-0.23701535
239	0x3a86aa1a	0.0010274083
240	0x3d667d24	0.056271687
241	0x3d45b58c	0.04826884
242	0xbcd0eb3c	-0.025502793
243	0xbdb0225f	-0.08600306
244	0x3cfdffa0	0.03100568
245	0x3cf83121	0.030296864
246	0xbd96e045	-0.07366995
247	0xbda03e10	-0.078243375
248	0x3d1b5f3e	0.037932627
249	0x3cae115f	0.021248518
250	0xbda2e30c	-0.07953462
251	0xbdd00b6d	-0.10158429
252	0xbd99e8c5	-0.075151004
253	0xbe093ec7	-0.13402854
254	0xbd44ebcb	-0.048076432
255	0xbd2146ab	-0.039374035

net.4.bias f4 [128]
0	0xbebb49c0	-0.36579704
1	0xbe77826d	-0.24170847
2	0xbe82b0c5	-0.2552549
3	0xbe4c7934	-0.1996811
4	0x3e275e86	0.16344652
5	0xbf995b34	-1.1980958
6	0xbe0c7237	-0.13715445
7	0xbee3263d	-0.4436511
8	0xbe90380e	-0.28167766
9	0xbd447daf	-0.047971424
10	0xbe077f19	-0.13232078
11	0xbd9ba9fc	-0.07600781
12	0x3d12ab4f	0.035807904
13	0xbdd0a4ba	-0.10187669
14	0x3d0ed774	0.03487344
15	0xbe5dfc5c	-0.21678299
16	0xbe472707	-0.19448482
17	0xbe8f7887	-0.28021643
18	0xbd95603e	-0.07293747
19	0xbdd13aaa	-0.102162674
20	0xbed546a1	-0.41655448
21	0x3dc24e97	0.09487646
22	0xbf624a37	-0.8839449
23	0x3f00b7fb	0.5028073
24	0xbe5bb78d	-0.21456738
25	0xbe16b80a	-0.14718643
26	0xbe4ca337	-0.19984137
27	0xbf10e4cc	-0.56599116
28	0xbe94e0a6	-0.29077643
29	0xbf5a82bf	-0.8535575
30	0xbd41dbaf	-0.047328647
31	0xbe14daef	-0.14536642
32	0x3dc887da	0.09791537
33	0xbe674a31	-0.22586896
34	0xbdb47a67	-0.08812409
35	0xbcc3f356	-0.023919743
36	0x3c36d80f	0.011159911
37	0x3eeb2e01	0.45933536
38	0xbf0d75f0	-0.55258083
39	0x3e654173	0.22388248
40	0xbe68a47b	-0.22718994
41	0xbd348655	-0.04407342
42	0x3c988987	0.018620266
43	0xbe154888	-0.1457845
44	0x3ce82760	0.028339088
45	0xbeca267b	-0.39482483
46	0xbec0dd5e	-0.3766889
47	0xbe02150c	-0.12703341
48	0xbecb1b57	-0.39669296
49	0xbf35f073	-0.7107002
50	0x3e8f5a6d	0.27998677
51	0xbe1aab17	-0.15104328
52	0xbdcfd6e9	-0.10148413
53	0xbeafaa6d	-0.34309712
54	0x3d2c42f1	0.042056028
55	0x3f455ffe	0.770996
56	0xbe270bed	-0.16313143
57	0xbcaab368	-0.0208375
58	0xbeb27f18	-0.3486259
59	0xbd4f592e	-0.050622158
60	0xbee35851	-0.44403318
61	0xbe1cdd47	-0.15318786
62	0xbea3fef6	-0.32030457
63	0xbe585c0c	-0.21128863
64	0xbda00ebb	-0.078153096
65	0xbe61d8c7	-0.2205535
66	0xbd8fdc15	-0.07024399
67	0x3ef19233	0.47181854
68	0xbe5971f1	-0.21234871
69	0xbf82709b	-1.0190614
70	0xbe5fe0eb	-0.21863143
71	0xbe60d64d	-0.2195675
72	0xbf03fa1b	-0.51553506
73	0x3d6b39e2	0.05742825
74	0x3edbd547	0.42936155
75	0xbe211f9b	-0.15734713
76	0xbe33a899	-0.17544784
77	0x3c1b0067	0.009460545
78	0xbdc23eae	-0.094846115
79	0xbe424978	-0.18973339
80	0xbf4e2f38	-0.805408
81	0xbd4b7eb8	-0.049681395
82	0x3e34e25e	0.17664477
83	0xbf06d55d	-0.52669317
84	0xbe2cc27b	-0.16871063
85	0x3e054f99	0.13018645
86	0xbde14958	-0.11000317
87	0xbce789cc	-0.028263949
88	0xbeb8e51a	-0.3611229
89	0xbf3d0c3a	-0.7384678
90	0xbc9fe619	-0.019518899
91	0xbdf3363b	-0.11875578
92	0x3e30fe16	0.17284426
93	0xbe0fb1e2	-0.140327
94	0x3e5d2f97	0.21600185
95	0xbe51c6a4	-0.20485932
96	0x3defa761	0.11701847
97	0x3c4d7386	0.01253975
98	0xbdca707c	-0.09884736
99	0xbf8d88c5	-1.1057364
100	0x3e7deb1c	0.24796718
101	0xbf326bcb	-0.6969573
102	0xbd925d90	-0.07146752
103	0xbe482644	-0.19545847
104	0xbf6f9134	-0.9358094
105	0xbdd3d6a2	-0.10343672
106	0xbe442510	-0.19154763
107	0xbe874efc	-0.26427448
108	0xbe97db8f	-0.29659697
109	0xbdfdc88f	-0.12391769
110	0x3f0461e8	0.51711893
111	0x3d0213fa	0.031757332
112	0xbe2bf869	-0.1679398
113	0xbf5cddc1	-0.8627587
114	0x3e158e04	0.14604956
115	0xbf117565	-0.56819755
116	0xbd6d05f4	-0.057867005
117	0xbe0fc7eb	-0.14041106
118	0xbe9ef59d	-0.31046763
119	0xbe9a6c38	-0.3016069
120	0xbe82ff5f	-0.25585458
121	0xbe954e37	-0.29161236
122	0xbd76e356	-0.0602754
123	0x3f508b83	0.8146288
124	0xbe36a937	-0.17837988
125	0x3e479a7b	0.19492523
126	0xbeb71828	-0.35760617
127	0xbefba33e	-0.4914798

net.6.weight f4 [32, 128]
0	0xbb118f77	-0.0022210756
1	0x3d6059aa	0.05477301
2	0x3b2cc43c	0.0026362082
3	0xbd38d906	-0.045128845
4	0xbe16b566	-0.14717636
5	0xbe2db301	-0.16962816
6	0x3cb02634	0.021502592
7	0x3ca63ed0	0.020293623
8	0xbda6685d	-0.081253745
9	0xbd002e30	-0.031294048
10	0xbdf750cd	-0.120759584
11	0xbcddb902	-0.027065758
12	0xbc54f97a	-0.012998933
13	0xbc298dba	-0.010348732
14	0xbcc1a99b	-0.023640445
15	0x3cb1c7eb	0.021701774
16	0x3b7b6766	0.003836119
17	0x37b6dc6a	2.1798729e-05
18	0xbd9ff7b2	-0.07810916
19	0xbd2fb5a6	-0.042897843
20	0x3d2b5f24	0.04183878
21	0xbeb63ddc	-0.3559407
22	0xbd9af9d4	-0.07567182
23	0xbed25bab	-0.41085562
24	0xbe0766d4	-0.1322282
25	0x3d8b42a8	0.06799823
26	0x3d2f85fa	0.04285238
27	0x3ccc33d8	0.024927065
28	0x3bdafcff	0.0066829915
29	0xbdaba151	-0.08380378
30	0xbe2452a3	-0.16047148
31	0xbd88b82e	-0.066757545
32	0xbecae7b2	-0.39629894
33	0xbaf53f25	-0.0018710835
34	0xbb2aa755	-0.002603968
35	0xbd0ace8b	-0.03388838
36	0xbe11cad2	-0.14237526
37	0xbd621619	-0.055196855
38	0xbc739c98	-0.014868878
39	0xbb9aebaf	-0.0047278027
40	0x3d319426	0.043354176
41	0xbdea0e00	-0.114284515
42	0x3d896d1e	0.067102656
43	0xbda38781	-0.0798483
44	0xbe2447dc	-0.16043037
45	0xbcd9e537	-0.026598556
46	0xbe004294	-0.12525398
47	0xbcc2bbd8	-0.023771212
48	0x3d027c83	0.031857025
49	0x3d687f1e	0.056761853
50	0xbdd06acb	-0.10176619
51	0x3d095d49	0.03353623
52	0xbc5bb528	-0.01340989
53	0x3dc00bf6	0.09377281
54	0xb93b634b	-0.00017870699
55	0xbd6a370e	-0.05718141
56	0xbd0e0337	-0.034671035
57	0x3c5cfd97	0.013488195
58	0xbeb7f090	-0.35925722
59	0xbde7c326	-0.113165185
60	0xbde52ac1	-0.11189795
61	0x3de52e1c	0.11190435
62	0xbe04a179	-0.12952222
63	0xbdc8c149	-0.09802491
64	0x3d593124	0.05302538
65	0x3b0abe24	0.0021170462
66	0xbc803afa	-0.015653122
67	0xbe88cf82	-0.26720816
68	0xbdf4fceb	-0.11962303
69	0xbc986e55	-0.018607298
70	0xbcd1e9a0	-0.025624096
71	0xbe0cb176	-0.13739571
72	0xbecf8a1e	-0.40535063
73	0xbdea9131	-0.11453474
74	0xbe7d8947	-0.24759398
75	0xbc866f5f	-0.016410528
76	0x3d39c37a	0.045352437
77	0xbca12312	-0.019670043
78	0xbcbdc5f3	-0.023165679
79	0xbd1a55e1	-0.037679557
80	0xbd715fb2	-0.058929153
81	0xbed0f661	-0.40812972
82	0xbddfd82e	-0.10929905
83	0x3c6569e3	0.014002296
84	0xbdbe5090	-0.0929271
85	0xbe220c2f	-0.1582496
86	0x3d932c75	0.07186214
87	0x3ae8f746	0.0017773889
88	0x3bb383ae	0.005478344
89	0xbd6f7d14	-0.058468893
90	0xbd8ff933	-0.07029953
91	0xbe4457d4	-0.19174129
92	0xbc877e0e	-0.0165396
93	0xbd9eaa62	-0.07747342
94	0xbe93c710	-0.2886281
95	0x3d66cd2a	0.056348003
96	0xbbab6e3a	-0.005231646
97	0xbd72f79f	-0.05931818
98	0x3b695ce3	0.0035608343
99	0xbdbd1633	-0.0923275
100	0xbd69588e	-0.056969218
101	0xbe13e229	-0.14441742
102	0x3e15ec70	0.14640975
103	0xbdfb12fa	-0.12259479
104	0xbea43d5a	-0.32078058
105	0x3c4ffc9f	0.012694507
106	0xbcbcfa08	-0.023068443
107	0xbd16d91a	-0.036828138
108	0xbcea10d9	-0.028572487
109	0xbd012460	-0.03152883
110	0xbdcb728c	-0.099339575
111	0xbd6404ba	-0.05566857
112	0xbdd45091	-0.10366929
113	0x3d210136	0.039307795
114	0x3c1ba0a5	0.00949875
115	0xbdba7e64	-0.09106138
116	0x3d1e6394	0.038669184
117	0xbe05cb6e	-0.13065884
118	0x3d528092	0.051392145
119	0xbd08f904	-0.033440605
120	0xbdbefa62	-0.093251005
121	0xbd6ff218	-0.058580488
122	0xbd3470b5	-0.0440528
123	0xbea0c048	-0.313967
124	0xbe0f4bc3	-0.13993745
125	0xbee3bd55	-0.44480386
126	0xbd98482f	-0.07435643
127	0xbddd9a81	-0.10820485
128	0xbe117987	-0.14206515
129	0xbc819ac9	-0.015820878
130	0x3c1f5336	0.009724429
131	0xbddd942e	-0.10819279
132	0xbe043621	-0.12911274
133	0xbd1e27d4	-0.0386122
134	0xbd796b1c	-0.060893163
135	0x3caf457d	0.02139544
136	0xbda37000	-0.07980347
137	0x3d400dae	0.046888046
138	0xbd23c0ea	-0.0399789
139	0xbe7d89a8	-0.24759543
140	0x3bff47e1	0.007790551
141	0xbe1184ab	-0.14210765
142	0xbdf71fb7	-0.12066596
143	0xbccad0f8	-0.024757847
144	0x3d27f1de	0.041002147
145	0xbbf412d0	-0.0074485317
146	0xbd97669b	-0.07392617
147	0x3d167a0e	0.036737494
148	0xbda29eca	-0.07940443
149	0xbd4db008	-0.050216705
150	0xbc4e4088	-0.012588628
151	0xbd30f484	-0.04320194
152	0xbd26ba48	-0.040704995
153	0xbdc69cf6	-0.09697907
154	0xbc001ab8	-0.00781887
155	0xbbc03c56	-0.0058665676
156	0xbe159e3e	-0.14611146
157	0xbccf6fd0	-0.025321871
158	0xbbc00bd6	-0.005860786
159	0xbda6d4f9	-0.0814609
160	0xbeda7812	-0.4266973
161	0xbd9f0866	-0.07765274
162	0xbde8f6a5	-0.11375169
163	0x3bc5c70c	0.006035691
164	0xbda1fff8	-0.0791015
165	0xbeab35cd	-0.33439484
166	0xbeb8987f	-0.36053845
167	0xbea78c51	-0.3272424
168	0xbdaf3665	-0.08555297
169	0x3c84a584	0.016192205
170	0xbd9fbc7a	-0.07799621
171	0xbe0bdaca	-0.1365768
172	0x3c18cd60	0.009326309
173	0xbd932e55	-0.071865715
174	0xbc208798	-0.009797953
175	0xbda89416	-0.0823137
176	0xbda3e29a	-0.08002205
177	0xbc3a8108	-0.0113833025
178	0x3d88f3df	0.0668714
179	0x3b6757e0	0.003530018
180	0xbdd3c08b	-0.10339459
181	0xbcf4b9f2	-0.029873822
182	0x3c4e4568	0.01258979
183	0xbebef8ff	-0.37299344
184	0xbd92a315	-0.07160012
185	0xbbb5e870	-0.0055513903
186	0xbda9eeed	-0.082975246
187	0xbe0333b2	-0.12812689
188	0x3d9ec4c5	0.077523746
189	0xbd33598b	-0.043786567
190	0xbec14ae3	-0.37752447
191	0x3cd4a539	0.02595769
192	0xbd91556c	-0.07096371
193	0xba92fcbb	-0.0011214236
194	0x3c9e6576	0.01933549
195	0xbea472e9	-0.3211892
196	0xbcef9ed5	-0.029250542
197	0xbe080196	-0.13281855
198	0xbd03ebba	-0.03220723
199	0x3cceb154	0.025231041
200	0xbd71af7d	-0.05900525
201	0xbeab4527	-0.33451197
202	0x3c7acc00	0.015307426
203	0xbb580080	-0.0032959282
204	0x3c786080	0.015159726
205	0xbd3d716a	-0.04625074
206	0xbdd07890	-0.101792455
207	0xbd1acef8	-0.037795037
208	0x3d41a61a	0.047277547
209	0xbd7df5f6	-0.062002145
210	0xbe6d3c88	-0.23167622
211	0xbcc7c572	-0.024386141
212	0xbd152aff	-0.036417957
213	0xbd8b9d12	-0.06817068
214	0xbde3dc1b	-0.11125966
215	0x3d8b80d1	0.06811679
216	0x3d5fff12	0.054686613
217	0xbd8ae448	-0.067818224
218	0xbd73f3f2	-0.059558816
219	0xbd7dd1b8	-0.06196758
220	0xbdb45f4b	-0.08807238
221	0xbc77ad3f	-0.015116989
222	0xbdfc7536	-0.12327044
223	0x3a648100	0.0008716732
224	0xbd6979e6	-0.057001017
225	0x3cdb02f4	0.026734807
226	0x3c2e5958	0.010641418
227	0x3b419a9e	0.0029541622
228	0xbde02b5f	-0.109457724
229	0xbebb6561	-0.36600783
230	0xbc8fa3e4	-0.017534204
231	0xbd2b83dc	-0.041873798
232	0xbd99fb90	-0.07518685
233	0x3c50668b	0.012719761
234	0xbc0bebb8	-0.008540086
235	0x3c853268	0.016259387
236	0x39918900	0.00027758628
237	0xbd0866a2	-0.033301003
238	0xbdc1a8e2	-0.0945604
239	0xbea0a55e	-0.31376165
240	0xbe1241d4	-0.14282924
241	0x3d0bc406	0.03412249
242	0xbc750f14	-0.014957208
243	0xbdbd479e	-0.092421755
244	0x3c7aad22	0.015300067
245	0xbcc1a610	-0.023638755
246	0xbe8d9e9f	-0.2766008
247	0xbda49cbf	-0.080377094
248	0xbcc2fc54	-0.02380196
249	0xbc4082ed	-0.011749965
250	0xbebe7f9e	-0.3720674
251	0xbe6ffc6f	-0.2343614
252	0x3d4983ee	0.049198084
253	0xbd994562	-0.07483937
254	0xbc528d18	-0.012851022
255	0x3d6a41b6	0.057191573

net.6.bias f4 [32]
0	0xbeeee7cf	-0.4666123
1	0xbee8aae9	-0.45442894
2	0x3dacfbcc	0.08446464
3	0xbec1befd	-0.37841025
4	0xbeb2c20c	-0.3491367
5	0xbd8dda2a	-0.06926377
6	0xbe3ffe30	-0.18749309
7	0xbe393ea1	-0.18090297
8	0xbe1b3a4f	-0.15158962
9	0xbe981de2	-0.297103
10	0xbc8039d7	-0.01565258
11	0xbe65ebbd	-0.22453208
12	0xbe448bdb	-0.19193976
13	0xbd99d112	-0.0751058
14	0x3e587f03	0.21142201
15	0xbd23a0d2	-0.039948292
16	0xbccf6991	-0.025318893
17	0xbe2dd29b	-0.16974871
18	0x3cadaeb5	0.02120147
19	0x3f877dfb	1.0585321
20	0x3f2ef8fc	0.6834867
21	0x3eb4a15c	0.35279357
22	0xbeb801bb	-0.3593882
23	0xbe989365	-0.29799953
24	0xbc35fbac	-0.0111073665
25	0x3e9d744e	0.30752796
26	0xbdf86542	-0.121286884
27	0xbe00e87a	-0.12588683
28	0xbe96bc8a	-0.2944072
29	0xbee371a7	-0.44422647
30	0x3e2d4b2d	0.16923209
31	0x3d15518c	0.036454722

net.8.weight f4 [8, 32]
0	0xbd339091	-0.04383904
1	0x3d86ac32	0.065758124
2	0x3ce48f75	0.027900437
3	0x3ea1ad36	0.31577462
4	0x3ed28ae7	0.411216
5	0xbd82a237	-0.06378596
6	0xbf05bcb4	-0.52241063
7	0x3c9ce04e	0.019149926
8	0x3e3cab24	0.1842466
9	0xbe20072c	-0.15627736
10	0xbe440da1	-0.19145824
11	0x3e560d4c	0.2090351
12	0xbe23676c	-0.15957421
13	0x3bd5aa1a	0.006520522
14	0x3fab393f	1.3376845
15	0xbd06c28d	-0.03290038
16	0xbe884ba4	-0.2662021
17	0x3ecc88c1	0.39948085
18	0xbdbfeb39	-0.09371037
19	0xbf1dd0d1	-0.61646754
20	0xbe92fc96	-0.28708333
21	0x3f0c497f	0.54799646
22	0x3e8fd4bb	0.28091988
23	0xbda407c7	-0.08009296
24	0xbe0da63e	-0.13832948
25	0xbe3b2b3c	-0.18278211
26	0xbd6fea65	-0.058573145
27	0x3c92cb14	0.0179191
28	0xbfa24c4f	-1.2679538
29	0x3d8d871a	0.06910534
30	0x3e651079	0.22369565
31	0x3e1566f8	0.1459006
32	0xbc9a9d82	-0.018873934
33	0x3d899a43	0.06718876
34	0x3e92eab1	0.2869468
35	0xbe9d37a2	-0.30706507
36	0xbeb8f350	-0.36123133
37	0x3d98353c	0.07432029
38	0x3d00a1d1	0.03140432
39	0x3c22c8a4	0.009935532
40	0x3d1cc144	0.03827025
41	0xbe1a6f4c	-0.15081519
42	0xbda6179b	-0.08109971
43	0xbe28a2fe	-0.16468427
44	0xbcaf5cca	-0.02140655
45	0x3c439375	0.011937012
46	0xbe275e79	-0.16344632
47	0x3d598026	0.053100727
48	0xbcfe4767	-0.031039907
49	0xbec84c15	-0.39120546
50	0x3ddf22a0	0.10895276
51	0xbe1c651a	-0.15272942
52	0x3e3db2f6	0.185253
53	0x3e62af02	0.22137073
54	0xbe711f83	-0.23547177
55	0x3ca028c4	0.019550689
56	0x3de525f3	0.11188879
57	0xbec40e8d	-0.3829235
58	0x3c578aeb	0.013155679
59	0x3d6dab63	0.058024775
60	0x3e3b0173	0.18262272
61	0x3d409ef7	0.0470266
62	0x3e3be472	0.18348864
63	0xbda25e30	-0.07928121
64	0x3da23e64	0.07922056
65	0xbc0c772b	-0.008573334
66	0x3bf54f60	0.007486269
67	0xbca31359	-0.019906687
68	0x3d3dfbb1	0.04638261
69	0x3d032d5c	0.03202568
70	0x3e81ea2f	0.2537398
71	0xbd19a5c5	-0.037511606
72	0xbb4fa071	-0.0031681324
73	0xbc0ca1d2	-0.008583503
74	0xbd78f2bf	-0.060778376
75	0xbd1e587d	-0.038658608
76	0x3d9b2fe1	0.075774916
77	0xbe011b99	-0.12608184
78	0x3d6a0ff0	0.057144105
79	0xbe5ce3e3	-0.21571307
80	0x3e1c81b2	0.1528385
81	0x3db585b8	0.088633955
82	0xbc6efd29	-0.014586725
83	0xbcf2a8a0	-0.029621422
84	0x3d55f135	0.052231986
85	0xbe36afa0	-0.17840433
86	0x3eafb254	0.3431574
87	0xbdcdb952	-0.10045113
88	0x3c834a30	0.016026586
89	0xbd9e3060	-0.077240705
90	0x3d8d9460	0.06913066
91	0x3d4cbb15	0.049983103
92	0xbd64e859	-0.055885646
93	0x3dc9f73a	0.09861608
94	0x3d9956a7	0.07487231
95	0x3b35ab6a	0.002772058
96	0xbcb16049	-0.021652358
97	0xbeba64c8	-0.36405015
98	0xbdbe5a71	-0.09294594
99	0xbccec952	-0.025242481
100	0x3dbfc1ea	0.09363158
101	0xbd8c5331	-0.06851805
102	0x3ebf494d	0.37360612
103	0xbdaa8817	-0.08326738
104	0x3b5be3e0	0.0033552572
105	0x3ce03341	0.02736819
106	0xbe0068bb	-0.12539952
107	0xbdf61de7	-0.12017422
108	0xbd4e87a5	-0.05042233
109	0x3e06427a	0.13111296
110	0xb87f3140	-6.0842605e-05
111	0xbde0608a	-0.10955913
112	0xbcd4cc67	-0.025976373
113	0xbcea91f8	-0.028634056
114	0x3d06e9ff	0.032938
115	0xbc81d11a	-0.015846778
116	0x3dd4b8a6	0.103867814
117	0x3d05ea78	0.03269431
118	0x3e317e79	0.17333402
119	0x3d4fe352	0.0507539
120	0xbd77db53	-0.0605119
121	0x3cc67ba1	0.024228873
122	0x3ce8f17a	0.028435457
123	0x393ffaf6	0.0001830867
124	0x3ba5825f	0.005050942
125	0x3e607357	0.21918999
126	0xbc8b386a	-0.016994674
127	0xbb258eba	-0.0025262074
128	0x3e048b25	0.12943704
129	0x3d0fd8cc	0.035118863
130	0xbd68a18c	-0.056794688
131	0x3f5797f6	0.8421625
132	0xbb2eab9d	-0.0026652582
133	0xbda76e40	-0.081753254
134	0xbe0cf80e	-0.137665
135	0x3e967bd5	0.2939135
136	0xbf9b964f	-1.2155246
137	0x3d4e61b0	0.05038613
138	0xbd30f64a	-0.04320363
139	0x3e21c03e	0.15795991
140	0xbe3fa6a3	-0.1871591
141	0xba1c0672	-0.0005951888
142	0xbf554f2b	-0.83323926
143	0xbcd470ee	-0.025932755
144	0x3f97812b	1.1836294
145	0x3ecb6d35	0.39731756
146	0xbd8eb828	-0.06968719
147	0xbfd80e1d	-1.6879307
148	0xbf37781e	-0.7166766
149	0xbf21233e	-0.629444
150	0xbe9e1c58	-0.30881
151	0xbe1396c8	-0.14412987
152	0xbd983b67	-0.07433205
153	0x3f81fa86	1.0154579
154	0x3e13066f	0.14357923
155	0x3e3bcd66	0.18340072
156	0x3f49b1bd	0.7878683
157	0x3dc19cf9	0.09453768
158	0xbeaed822	-0.3414927
159	0x3ed1845f	0.40921304
160	0x3d4d5fbe	0.050140135
161	0x3d800f33	0.06252899
162	0xbe626011	-0.22106959
163	0x3f651191	0.8947993
164	0x3e6aedb7	0.22942244
165	0xbdf83df6	-0.12121193
166	0xbe603b96	-0.2189773
167	0x3c0b661f	0.008508234
168	0xbf084c8b	-0.53241795
169	0xbe4714d9	-0.19441546
170	0x3bf3605b	0.007427258
171	0xbd4afc36	-0.049556933
172	0x3d025f25	0.03182902
173	0xbc78602b	-0.015159647
174	0xbf44c4dc	-0.76862884
175	0xbdc3968d	-0.095502
176	0x3f9de1e1	1.2334558
177	0x3f6dd761	0.9290677
178	0xbdf86ac5	-0.1212974
179	0xbfda4931	-1.7053586
180	0xbf52ac99	-0.82294613
181	0xbefd6b68	-0.49496007
182	0x3e424d51	0.18974806
183	0x3d7aa8ec	0.061196253
184	0xbde3cb46	-0.11122756
185	0x3f038ca5	0.5138648
186	0xbdcfb4ec	-0.1014193
187	0x3d96e0bf	0.07367086
188	0x3f58e61f	0.84726137
189	0xbd5049b5	-0.050851543
190	0xbf044217	-0.51663345
191	0x3eb0ecd1	0.34555677
192	0xbd033778	-0.03203532
193	0xbe51752a	-0.20454851
194	0xbf10933d	-0.5647467
195	0x3f2931ef	0.6609182
196	0xbe9246b2	-0.2856956
197	0x3b9c49ad	0.004769525
198	0x3dcfab27	0.101400666
199	0x3e0c32d9	0.13691272
200	0xbe80c4b3	-0.2515007
201	0x3d931689	0.071820326
202	0xbdca3879	-0.098740526
203	0xbdd88883	-0.105729125
204	0xbe3c4978	-0.18387401
205	0xbc3adb87	-0.011404878
206	0xbf5f5744	-0.8724253
207	0x3cf4c710	0.029880077
208	0x3e8de039	0.2771013
209	0x3e5a354e	0.21309397
210	0xbda2bcce	-0.07946168
211	0xbfec5170	-1.8462353
212	0xbf93fd71	-1.1561719
213	0xbf66036b	-0.89848965
214	0xbe5b96bc	-0.2144422
215	0xbe8bb1fb	-0.27284226
216	0x3d451863	0.04811896
217	0x3d6a279a	0.057166673
218	0x3be8a6f6	0.0070999814
219	0x3de007eb	0.1093901
220	0x3f17c896	0.59290445
221	0xbbbd11b4	-0.0057699326
222	0xbeb355ce	-0.350264
223	0xbdf40d9f	-0.119166605
224	0xbe28fa08	-0.1650163
225	0xbb9c2a69	-0.004765798
226	0xbf1d7ad9	-0.61515576
227	0x3f147482	0.57990277
228	0x3e2ebe8c	0.17064875
229	0xbe4e54af	-0.20149492
230	0xbea460f3	-0.32105216
231	0x3c985483	0.018594986
232	0x3e42f5bb	0.19039051
233	0x3d98a728	0.074537575
234	0x3dfd6ba6	0.12374048
235	0xbdfac771	-0.12245072
236	0xbe186a3a	-0.14884272
237	0xbe02223c	-0.12708372
238	0xbf631c04	-0.88714623
239	0xbdd7c1d8	-0.1053502
240	0x3e166f95	0.14691003
241	0xbe485d04	-0.19566733
242	0xbe43de27	-0.19127713
243	0xbfd28f43	-1.644997
244	0xbf901781	-1.1257173
245	0xbf54eb93	-0.8317196
246	0x3ed001fe	0.4062652
247	0xbe18a7d5	-0.14907773
248	0xbc88abc2	-0.016683463
249	0x3d46e593	0.048558783
250	0x3b9f1163	0.0048543676
251	0xbc58faf9	-0.01324343
252	0x3f0b89a9	0.5450693
253	0x3d921787	0.07133394
254	0xbea54ee9	-0.32286766
255	0xbed11244	-0.40834248

net.8.bias f4 [8]
0	0xbe95aab6	-0.29231805
1	0xbe635cbd	-0.22203346
2	0x3da2173c	0.07914588
3	0xbdab8462	-0.083748594
4	0xbf2f4fb3	-0.68480986
5	0xc01c10c7	-2.438524
6	0xc01f382d	-2.4878037
7	0xc041658a	-3.0218225

net.0.weight f4 [32, 6]
0	0xbb45ab2c	-0.003016184
1	0x3da2f993	0.07957759
2	0x3ed1efc0	0.41003227
3	0x3d5947da	0.05304704
4	0xbd9fad59	-0.07796735
5	0xbd12f3d3	-0.03587706
6	0xbe92055d	-0.28519717
7	0x3dd4580d	0.10368357
8	0x3f3fabde	0.74871624
9	0x3dabc3d1	0.083869584
10	0x3c86a10b	0.016434213
11	0xbe8e65f0	-0.27812147
12	0xbc53ce2d	-0.012927574
13	0x3e266ea1	0.16253139
14	0x3de16010	0.110046506
15	0xbddb2a1a	-0.107013896
16	0xbde493a0	-0.1116097
17	0x3edaa9fe	0.4270782
18	0x3e1cbee1	0.1530719
19	0x3d820b5b	0.06349822
20	0xbf9fa5f6	-1.2472522
21	0xbf21ef3a	-0.63255656
22	0xbd27a68f	-0.040930327
23	0xbf0dc841	-0.5538369
24	0xbe0bf5c2	-0.13667968
25	0xbf12eaa9	-0.57389313
26	0xbd6ff067	-0.058578875
27	0x3caf9cf4	0.021437146
28	0xbb600f69	-0.0034188873
29	0xbf13d730	-0.57750225
30	0x3dde8cab	0.10866674
31	0x3eea786a	0.45794994
32	0x3bd8ac9a	0.0066123726
33	0xb9f870c8	-0.00047386275
34	0xbb1937ce	-0.002337921
35	0x3ee189e4	0.44050515
36	0x3d2ecad5	0.042673904
37	0xbdb2e75b	-0.08735534
38	0xbe1ba59e	-0.15199897
39	0x3e3c11a2	0.18366101
40	0xbd70e000	-0.058807373
41	0x3f14b831	0.58093554
42	0x3e2a944c	0.16658133
43	0xbde690cf	-0.11258089
44	0x3d414ccb	0.047192376
45	0xbd1e579b	-0.038657766
46	0xbc00d187	-0.007862455
47	0xbd9eaa17	-0.07747286
48	0xbe127ff2	-0.1430662
49	0x3d5d67fe	0.054054253
50	0xbe90a5e5	-0.28251567
51	0xbe4de1fb	-0.20105736
52	0xbd393ab4	-0.045222
53	0xbf20a915	-0.62758
54	0x3de5a9e5	0.112140454
55	0xbdca1bca	-0.098685816
56	0x3ed64755	0.41851297
57	0xbf05fbd1	-0.52337366
58	0xbc8383e8	-0.016054109
59	0xbef542c1	-0.47902492
60	0x3d9122ac	0.07086691
61	0x3dbec6d9	0.09315271
62	0xbd0927e7	-0.03348532
63	0x3e52c4b0	0.20582843
64	0xba59c8d2	-0.00083078176
65	0xbec8be8e	-0.39207882
66	0x3c8a6929	0.016895847
67	0x3b969703	0.0045956387
68	0xbdcac11f	-0.09900116
69	0xbf2beab0	-0.6715498
70	0x3c643083	0.013927582
71	0x3f63fe72	0.8906013
72	0x3a8ddc82	0.0010823163
73	0x3cc52d4e	0.024069455
74	0x3ecfc4c4	0.40579808
75	0xbf546f00	-0.8298187
76	0xbc47b986	-0.012190228
77	0xbf5bd78c	-0.85875773
78	0xbdc8fda8	-0.09814006
79	0x3cce1b7c	0.02515959
80	0xbf0a5779	-0.5403972
81	0x3f46e25d	0.7768915
82	0xbc7b9d06	-0.0153572615
83	0xbdb404fe	-0.08790015
84	0xbbc72afc	-0.006078122
85	0xbdad4836	-0.08461039
86	0xbd969968	-0.07353479
87	0xbd7f7f70	-0.062377393
88	0x3bbff6e8	0.005858291
89	0xbf3f4c1e	-0.7472552
90	0xbe1ce062	-0.1531997
91	0x3bd80f2f	0.006593607
92	0x3e8b3ce7	0.27194902
93	0xbf30d9ca	-0.6908232
94	0x3d93fb7c	0.07225701
95	0x3ddb24ba	0.107003644
96	0xbcf388d0	-0.029728323
97	0xbd86d2dd	-0.06583188
98	0xbef20751	-0.47271207
99	0xbd528af3	-0.051402044
100	0x3de3cec3	0.11123421
101	0x3e8385e1	0.2568808
102	0xbd33fc85	-0.043941993
103	0xbd561375	-0.05226465
104	0xbdd94fe7	-0.10610943
105	0xbe0809fd	-0.1328506
106	0x3dce6d94	0.10079494
107	0xbd51a206	-0.05117991
108	0xbc499a52	-0.012304859
109	0x3d02b863	0.031914126
110	0xbfa061aa	-1.2529805
111	0x3ebfe556	0.37479657
112	0x3c8fa0ae	0.017532673
113	0xbe8fe0e6	-0.2810127
114	0x3c17be33	0.009261656
115	0x3d179e5c	0.037016258
116	0xbcfa272a	-0.030536253
117	0xbc0d038f	-0.0086068055
118	0xbd899e1d	-0.06719611
119	0xbdb370c8	-0.08761746
120	0xbdef2c79	-0.11678404
121	0x3c7896b7	0.015172652
122	0xbfaf5781	-1.3698579
123	0xbebe893f	-0.37214085
124	0xbc2906f8	-0.010316603
125	0x3e54cfd2	0.20782402
126	0x3d63289a	0.055458643
127	0x3e026e61	0.12737419
128	0x3cbe786e	0.023250785
129	0x3de6aa5b	0.112629615
130	0x3cd7f81a	0.026363421
131	0xbf6e8b02	-0.9318086
132	0x3b965e07	0.0045888457
133	0x3a309861	0.00067365734
134	0x3ee43133	0.44568786
135	0x3f823113	1.0171226
136	0x3c210515	0.009827872
137	0x3f7bd4ac	0.98371387
138	0x3dfc39d3	0.123157166
139	0x3d2bfca1	0.041988973
140	0x3f370ec0	0.7150688
141	0x3f0ae077	0.54248756
142	0xbd397701	-0.045279507
143	0x3be19cee	0.0068851626
144	0x3bf3f8d3	0.0074454336
145	0x3d9efce2	0.07763077
146	0xbd0d248c	-0.034458682
147	0x3cd0c0cc	0.025482558
148	0xbe0220fb	-0.12707894
149	0xbe0d547a	-0.13801757
150	0x3c8a6f05	0.016898641
151	0xbd028dc3	-0.031873476
152	0xbea3814f	-0.31934592
153	0xbe96fa6c	-0.29487932
154	0x3c577a39	0.013151699
155	0x3ebccd17	0.3687522
156	0xbd96ebc4	-0.073691875
157	0xbe05ad05	-0.13054283
158	0x3cef58e9	0.0292172
159	0xbdfbf6ab	-0.123029076
160	0xbcd53755	-0.02602736
161	0x3f8714ee	1.0553262
162	0xbdb52370	-0.0884465
163	0x3d25b798	0.04045829
164	0x3f5f0076	0.8711008
165	0x3ea07c34	0.3134476
166	0xbbe94fee	-0.007120124
167	0x3dd6bfa1	0.10485769
168	0xbb960cf4	-0.004579181
169	0xbe09e21d	-0.13465162
170	0xbec6027e	-0.38673776
171	0xbea7c549	-0.32767704
172	0x3e1519d3	0.14560632
173	0xbcd6815c	-0.02618473
174	0x3dde7a50	0.10863173
175	0xbc93b6c8	-0.018031493
176	0x3f968461	1.1759149
177	0x3e9e65a0	0.3093691
178	0xbcc8b7a0	-0.024501622
179	0xbdfb1a62	-0.122608915
180	0x3e9faa62	0.3118468
181	0xbe0b52f4	-0.13605863
182	0xbf50fb06	-0.8163303
183	0xbe36869d	-0.17824788
184	0x3bc771df	0.0060865725
185	0x3ea9a417	0.33133003
186	0xbbf6f682	-0.0075367102
187	0x3c592603	0.013253692
188	0xbed34f8a	-0.4127162
189	0x3f79164b	0.9729964
190	0xbb95ae73	-0.004567915
191	0xbf7eeaf1	-0.9957724

net.0.bias f4 [32]
0	0xbf2a7d77	-0.66597694
1	0x3d33c563	0.043889415
2	0xbf9bceb2	-1.2172453
3	0xbf9ff8a9	-1.249776
4	0xbeb321eb	-0.34986815
5	0x3e92b2c7	0.2865202
6	0xbf20485a	-0.626104
7	0xbe814e8c	-0.2525524
8	0xbf44278a	-0.7662283
9	0xbf872bfe	-1.05603
10	0xbea5258b	-0.32255206
11	0xbebe235d	-0.37136355
12	0x3d19f120	0.03758347
13	0xbf8db3f6	-1.1070545
14	0xbf489304	-0.7834933
15	0xbf847fc1	-1.0351487
16	0xbf1bac75	-0.60810024
17	0xbf3d24b1	-0.7388411
18	0x3e6f9165	0.23395307
19	0xbeefc589	-0.46830395
20	0x3e79616e	0.24353573
21	0x3e7b977f	0.2456951
22	0xbd3e60d7	-0.046479072
23	0xbfa178f7	-1.261504
24	0xbf27d70d	-0.65562516
25	0xbf331a81	-0.69962317
26	0xbe95ef01	-0.29283908
27	0xbf8959ca	-1.0730526
28	0xbfb11aee	-1.3836343
29	0xbe5e7b67	-0.21726762
30	0xbd14e6bc	-0.036352858
31	0xbd40edd4	-0.04710181
