weights/DPF_e2e.pt (torch_old, 285893 bytes, 64 tensors)

features.0.weight f4 [16, 2, 3, 3]
0.31629038 0.21636944 0.18137686 -0.04142666 -0.089321345 0.022954796 0.024378672 0.12035746
0.006519344 -0.1002914 0.2522692 -0.12251049 -0.10304658 -0.075953834 -0.006313948 -0.03561724
-0.25829843 -0.18296412 -0.28547627 -0.19972225 0.057168394 0.24304458 0.086012036 0.025320932
-0.010548714 0.18774724 -0.19097416 -0.09827821 0.17483585 0.26172677 -0.21746862 -0.060120836
-0.010161727 0.10535317 0.0031717666 -0.078859664 -0.06413958 0.21280117 0.09920779 0.042008385
-0.2028769 -0.025942814 0.0363777 -0.12198653 -0.18772323 -0.1520663 -0.3151609 -0.12585083
0.19941454 0.043597948 0.24757646 -0.07426781 0.17652 0.11050427 0.2442349 -0.018728811
-0.24369888 0.32012618 0.0066678682 -0.043247417 0.08181054 0.101973206 -0.20951308 0.12390137
0.11554234 0.073052034 0.3058906 0.167105 -0.23289812 -0.15069455 0.1137903 0.04131028
0.18322387 0.080410674 -0.29929462 -0.00064297207 0.17947812 -0.10513079 0.0746586 0.052391335
0.27082905 0.17495914 -0.18679713 -0.19367176 -0.0029915955 0.13407974 -0.33524352 -0.15692905
0.020836337 -0.10420694 -0.2825707 -0.1914084 -0.12625983 -0.07696884 0.111689076 0.16474824
-0.16318816 0.075220704 0.029766474 -0.064317554 0.019320674 0.1854008 0.22293848 0.07909525
0.29016253 -0.1950212 -0.10475469 -0.17116377 0.00039536948 0.05852243 -0.051497433 -0.01742049
-0.19048291 0.13380834 0.10790854 0.06280151 0.015162837 -0.16431598 -0.29935837 -0.16831696
-0.12743911 -0.3325601 -0.0049439343 0.22124068 -0.05628001 0.09651126 0.1298491 -0.15795225
-0.118675396 0.08537611 0.14556037 -0.071151204 -0.17163156 -0.2644669 -0.13048138 -0.07097709
-0.24402294 -0.2855132 0.17990345 0.16573015 0.16097401 -0.002077289 0.12817714 -0.12408694
0.24036683 0.29829475 0.057867587 -0.15476884 -0.14527702 -0.009269746 0.10924467 -0.074931145
-0.14857545 0.11553705 0.07702558 0.026440352 -0.016334035 -0.06866162 -0.04364305 -0.2946413
-0.09837678 -0.10539255 -0.12154498 0.21443424 0.15866871 -0.14462513 -0.1341446 -0.15655208
-0.0047457577 -0.11881373 0.10313585 -0.019167505 -0.10026942 -0.3072916 -0.2918072 0.08368649
-0.32800746 0.017949175 0.21062659 0.08525815 -0.3939426 -0.16618791 -0.33957937 -0.20174545
-0.27193406 0.16303653 0.025481861 -0.21471427 -0.046384066 0.13752314 0.14394796 0.021275751
0.16936281 0.027712937 -0.10865922 -0.06277302 0.204533 -0.007694527 -0.0628236 0.35735688
0.3328166 -0.23459487 -0.16925153 -0.1329635 -0.2265324 0.058458645 0.20064287 -0.12921764
0.1801125 -0.1443556 -0.31748325 -0.059766896 0.15761676 0.10650308 0.10998514 -0.17124858
-0.10155963 0.14152828 0.055021625 -0.08892059 -0.119273685 -0.10004597 0.0750841 0.3371091
-0.01593703 -0.19907376 -0.343009 -0.2706289 -0.059197195 -0.17775214 -0.2654052 0.21368963
-0.069122285 -0.24477531 0.070881106 -0.096578754 -0.111494526 0.046583038 0.20296334 0.022702578
-0.06268103 0.13230485 0.07613375 -0.014006828 0.046301004 0.124921836 0.04100553 0.1617048
0.060016487 0.023246393 0.20633253 0.36012962 -0.1651899 0.10588889 -0.10496031 -0.03925045
00000000: d0f0 a13e f38f 5d3e dbba 393e 00af 29bd
00000010: 1cee b6bd b20b bc3c c8b5 c73c f97d f63d
00000020: 39a0 d53b 9465 cdbd 6e29 813e c8e6 fabd
00000030: 160a d3bd af8d 9bbd 3ce5 cebb 62e3 11bd
00000040: b13f 84be f25a 3bbe f229 92be fd83 4cbe
00000050: 6829 6a3d aee0 783e 1427 b03d d86d cf3c
00000060: 83d4 2cbc d040 403e bb8e 43be 1646 c9bd
00000070: 2b08 333e 0d01 863e 18b0 5ebe 4441 76bd
00000080: 5f7d 26bc 67c3 d73d 6add 4f3b 2d81 a1bd
00000090: 9d5b 83bd 8de8 593e 742d cb3d fc10 2c3d
000000a0: f6be 4fbe 0686 d4bc c800 153d 13d4 f9bd
000000b0: 853a 40be 45b7 1bbe c55c a1be 0adf 00be
000000c0: 5333 4c3e c393 323d af84 7d3e b919 98bd
000000d0: a9c1 343e 1050 e23d b718 7a3e 2a6d 99bc
000000e0: 338c 79be 94e7 a33e 227e da3b 3424 31bd
000000f0: 498c a73d 54d7 d03d 998a 56be 00c0 fd3d
00000100: 76a1 ec3d 4e9c 953d b19d 9c3e 931d 2b3e
00000110: d87c 6ebe ac4f 1abe e40a e93d f834 293d
00000120: 0a9f 3b3e 5aae a43d 253d 99be 208d 28ba
00000130: 1dc9 373e d04e d7bd 9ce6 983d 4c98 563d
00000140: 1baa 8a3e 7d28 333e bf47 3fbe e451 46be
00000150: a50e 44bb 334c 093e 0aa5 abbe 02b2 20be
00000160: f7b0 aa3c 736a d5bd 1bad 90be 9000 44be
00000170: 424a 01be d7a1 9dbd 3ebd e43d c3b3 283e
00000180: cc1a 27be 500d 9a3d d2d8 f33c ecb8 83bd
00000190: 6446 9e3c b5d9 3d3e fc49 643e b1fc a13d
000001a0: 2f90 943e a3b3 47be a089 d6bd 8e45 2fbe
000001b0: 9849 cf39 37b5 6f3d f9ee 52bd 6ab5 8ebc
000001c0: f40d 43be 0e05 093e 27ff dc3d 149e 803d
000001d0: 8c6d 783c 7342 28be 8045 99be 485b 2cbe
000001e0: 667f 02be 5145 aabe ba00 a2bb eb8c 623e
000001f0: de85 66bd b2a7 c53d 2af7 043e 3cbe 21be
00000200: 160c f3bd acd9 ae3d c70d 153e b9b7 91bd
00000210: 2fc0 2fbe 3568 87be e99c 05be 705c 91bd
00000220: 26e1 79be c92e 92be 9c38 383e 2ab5 293e
00000230: 5fd6 243e 2023 08bb de40 033e 4b21 febd
00000240: b922 763e 17ba 983e 9006 6d3d b97b 1ebe
00000250: 80c3 14be 22e0 17bc abbb df3d 8075 99bd
00000260: 2a24 18be b09e ec3d 96bf 9d3d 7099 d83c
00000270: f4ce 85bc 779e 8cbd 0ec3 32bd 39db 96be
00000280: c479 c9bd 0dd8 d7bd 93ec f8bd a694 5b3e
00000290: 0d7a 223e 9c18 14be 345d 09be 304f 20be
000002a0: 4d82 9bbb 9d54 f3bd e338 d33d 2c05 9dbc
000002b0: 0e5a cdbd 5355 9dbe c167 95be d363 ab3d
000002c0: 98f0 a7be 260a 933c 7fae 573e d39b ae3d
000002d0: d8b2 c9be 2a2d 2abe 59dd adbe 5c96 4ebe
000002e0: f13a 8bbe 0cf3 263e 56bf d03c 0fde 5bbe
000002f0: 38fd 3dbd ded2 0c3e 1867 133e 7c4a ae3c
00000300: 726d 2d3e 3e06 e33c ba88 debd 248f 80bd
00000310: 1971 513e 5f22 fcbb a9a9 80bd 7bf7 b63e
00000320: f066 aa3e a339 70be 4650 2dbe 9527 08be
00000330: 1cf8 67be 5572 6f3d 5375 4d3e a151 04be
00000340: 696f 383e f4d1 13be 2a8d a2be 22ce 74bd
00000350: 4a66 213e 491e da3d e43f e13d ca5b 2fbe
00000360: 7ffe cfbd caec 103e 5b5e 613d 001c b6bd
00000370: c345 f4bd e7e4 ccbd b1c5 993d 9099 ac3e
00000380: 608e 82bc fed9 4bbe e09e afbe df8f 8abe
00000390: c278 72bd a804 36be 31e3 87be 74d1 5a3e
000003a0: fc8f 8dbd 61a6 7abe 1d2a 913d 15cb c5bd
000003b0: 3e57 e4bd dbcd 3e3d 9fd5 4f3e c2fa b93c
000003c0: e95e 80bd ec7a 073e 03ec 9b3d e57c 65bc
000003d0: 1fa6 3d3d 05d7 ff3d 6af5 273d f195 253e
000003e0: d9d3 753d 386f be3c d648 533e e962 b83e
000003f0: 8b27 29be 46dc d83d 6ef5 d6bd 14c5 20bd

features.0.bias f4 [16]
-0.15645055 -0.09668845 0.22228655 -0.26848277 0.18385053 -0.165454 -0.40404674 -0.34114853
0.050229307 0.071640454 -0.16025245 0.14003517 0.063438915 -0.18523507 0.055057433 -0.00848813
00000000: 9334 20be 9804 c6bd 169f 633e 9376 89be
00000010: 5043 3c3e c66c 29be 37df cebe 05ab aebe
00000020: 3fbd 4d3d 3bb8 923d 3819 24be 6165 0f3e
00000030: 43ec 813d 43ae 3dbe e783 613d cc11 0bbc

features.2.weight f4 [16]
0.9948748 1.1615038 0.9767677 0.965208 0.82666427 0.951778 1.1579334 0.9990483
1.0079788 0.92037666 0.88409215 0.93645537 1.0230796 0.88098484 1.0833037 0.9598788
00000000: 1db0 7e3f 28ac 943f 730d 7a3f df17 773f
00000010: 45a0 533f b9a7 733f 2937 943f a1c1 7f3f
00000020: 7305 813f ce9d 6b3f dd53 623f 8abb 6f3f
00000030: 46f4 823f 3988 613f b2a9 8a3f 9eba 753f

features.2.bias f4 [16]
0.13701025 0.0874846 -0.09843811 0.23771349 0.15646191 0.10878736 -0.11625586 0.061014086
0.18682666 -0.108815305 0.11482534 -0.07796677 -0.034133106 -0.0024592497 0.023608213 -0.010750562
00000000: 6a4c 0c3e 202b b33d eb99 c9bd 2a6b 733e
00000010: 8d37 203e e8cb de3d 8d17 eebd e8e9 793d
00000020: 7d4f 3f3e 8fda debd 8c29 eb3d 0bad 9fbd
00000030: 28cf 0bbd 5d2b 21bb 0366 c13c 2023 30bc

features.2.running_mean f4 [16]
-0.13009787 -0.0956309 0.2146248 -0.15616465 0.1616762 -0.17732814 -0.48326457 -0.40992182
0.033569027 -0.02673984 -0.2709236 0.13089515 -0.08029744 -0.006621556 0.098966315 0.096647404
00000000: 6038 05be 22da c3bd 9bc6 5b3e a0e9 1fbe
00000010: 728e 253e 8295 35be 746e f7be 46e1 d1be
00000020: ad7f 093d 820d dbbc 80b6 8abe 6109 063e
00000030: fc72 a4bd a3f9 d8bb daae ca3d 13ef c53d

features.2.running_var f4 [16]
0.0058638398 0.00017632572 0.00073003466 0.016134184 0.0012815716 0.0014812691 0.0071402374 0.001646662
0.007797168 0.006756885 0.007106941 0.0037417798 0.012091367 0.030011412 0.0025620733 0.011763374
00000000: 7425 c03b 13e4 3839 cc5f 3f3a d62b 843c
00000010: 68fa a73a 2527 c23a a7f8 e93b cfd4 d73a
00000020: 637f ff3b dc68 dd3b 58e1 e83b a638 753b
00000030: de1a 463c 7eda f53c 75e8 273b 2bbb 403c

features.3.weight f4 [32, 16, 3, 3]
-0.28327322 -0.29013526 -0.23612013 0.04427418 0.015458236 -0.08192777 0.08707805 0.18753943
0.03982081 0.15097503 0.061377544 0.13125505 -0.0089922855 -0.019796396 0.062345944 -0.13082854
-0.09760125 -0.23680076 0.20396915 0.14393906 -0.006815457 -0.20359054 -0.21504204 -0.061801262
-0.14576569 -0.058323205 0.023555068 0.032353792 -0.0620731 0.010217716 0.05522882 0.06853452
-0.014958596 0.053113677 -0.087547675 -0.019936439 -0.0036158795 -0.0208029 -0.0144081265 -0.0075858035
0.036094803 0.08995098 0.008942396 -0.021787267 0.025247978 0.16636512 0.06135565 0.048992585
0.09049972 -0.040976405 0.0012758038 -0.047091268 -0.017339347 0.013999715 0.07392881 0.07974511
0.021775475 -0.10276951 -0.043255262 -0.057528626 -0.032413654 0.009745284 0.10292544 0.19568595
0.09575713 0.036198303 -0.1308391 -0.011123504 0.03169692 -0.078754775 0.025993675 0.013070723
-0.20527548 -0.22185616 -0.15316723 -0.012078261 -0.016003693 -0.031914536 0.11699265 0.1798898
0.1834851 -0.06731831 0.019515786 0.05438262 -0.041348793 -0.13751462 -0.061128527 0.05144728
0.06615207 0.025320541 0.13663548 0.14901467 0.1505204 -0.017232532 -0.039085373 0.023794234
-0.011917647 -0.08787991 0.089341745 -0.028913219 -0.09400964 -0.17883013 -0.029599525 -0.1297483
-0.1911438 0.076916136 0.0756446 -0.023862971 -0.054684617 0.11319414 0.12756062 -0.035302814
0.055464406 0.033293508 0.081532605 -0.00091780623 0.05795094 0.007865142 0.030395819 -0.10345762
0.09519678 0.014087353 0.004206463 0.04096001 0.0089730555 -0.08313807 0.20513642 0.14426666
0.017848969 -0.033628114 -0.06731602 -0.043634154 -0.15095265 -0.05286885 -0.12815048 -0.0049187406
-0.03265865 0.015414478 -0.07860671 -0.04795183 -0.09503585 -0.17177607 -0.102516025 -0.009870147
-0.021946846 -0.10263926 -0.093815774 0.08003772 0.016688768 -0.07037297 0.16384937 0.09382968
0.037120923 0.10451561 0.08330573 0.08593236 0.05036302 -0.0874029 -0.05293659 -0.12073527
0.11945086 0.011949194 0.0018692429 -0.07790191 -0.16010995 -0.035103742 0.10886947 0.07307364
-0.18036982 -0.090062015 0.015858322 0.041946575 -0.094236165 0.023784056 0.08548882 -0.01309614
0.060388207 0.11750151 -0.06791879 0.11691506 0.06748327 0.033389516 0.1539415 0.21935955
-0.039940435 -0.039317187 0.010646642 -0.020511262 -0.092700414 0.08043433 0.23076193 0.09226206
-0.030825749 0.06076608 -0.036741845 -0.033903144 0.11316324 0.074123524 0.026212117 -0.009667311
0.018713102 0.033063218 0.06748083 -0.003276172 -0.11953647 -0.059776764 -0.028973948 0.038055517
0.033469975 0.14411192 0.09838078 0.10502965 0.17280497 0.05761622 -0.13555357 -0.014182713
0.055922594 0.021445239 0.036576822 -0.033377364 0.03147476 0.02241844 0.07244799 0.18838681
0.20928957 0.017368706 0.17792921 0.22888249 -0.09527183 -0.0025781041 -0.18614003 0.011718267
0.18893853 0.10957456 0.1132299 0.060330886 0.09874667 -0.026233109 0.08137841 -0.04007902
-0.15422902 -0.018647986 -0.11820324 -0.080547094 0.16388983 0.06348706 -0.2295297 0.0329447
-0.17589872 0.07876193 0.19625717 0.17163558 0.08288871 0.021769451 0.1447976 -0.007502996
00000000: 3009 91be 9c8c 94be 7ac9 71be d858 353d
00000010: 8b44 7d3c bfc9 a7bd fa55 b23d 560a 403e
00000020: 251b 233d 3399 1a3e 0567 7b3d b967 063e
00000030: 6154 13bc 0d2c a2bc 765e 7f3d ebf7 05be
00000040: 2ae3 c7bd e67b 72be 4add 503e c364 133e
00000050: 3254 dfbb 0a7a 50be fb33 5cbe 5223 7dbd
00000060: 9a43 15be 50e4 6ebd 8ff6 c03c 6985 043d
00000070: 5d40 7ebd 3568 273c 9d37 623d d45b 8c3d
00000080: e614 75bc ba8d 593d 324c b3bd be51 a3bc
00000090: 64f8 6cbb d86a aabc 1010 6cbc 5592 f8bb
000000a0: 25d8 133d 3838 b83d 2183 123c 367b b2bc
000000b0: d9d4 ce3c 9e5b 2a3e 1050 7b3d 73ac 483d
000000c0: eb57 b93d e0d6 27bd df38 a73a c6e2 40bd
000000d0: 3f0b 8ebc 105f 653c fd67 973d 6751 a33d
000000e0: 7b62 b23c d278 d2bd 6e2c 31bd 23a3 6bbd
000000f0: 2ec4 04bd afaa 1f3c 93ca d23d e661 483e
00000100: 501c c43d ac44 143d affa 05be 5b3f 36bc
00000110: a1d4 013d 2f4a a1bd b0f0 d43c 9626 563c
00000120: bc33 52be 432e 63be dfd7 1cbe e6e3 45bc
00000130: 2d1a 83bc d1b8 02bd d899 ef3d 0835 383e
00000140: 85e3 3b3e 2fde 89bd 92df 9f3c 4fc0 5e3d
00000150: 5a5d 29bd a2d0 0cbe e861 7abd 62ba 523d
00000160: bd7a 873d 066d cf3c 2cea 0b3e 4d97 183e
00000170: 0522 1a3e 3d2b 8dbc fc17 20bd 20ec c23c
00000180: 3c42 43bc 62fa b3bd cef8 b63d 6adb ecbc
00000190: 2088 c0bd 3f1f 37be b47a f2bc bddc 04be
000001a0: 33bb 43be 3586 9d3d 8eeb 9a3d 477c c3bc
000001b0: fafc 5fbd 54d2 e73d 409f 023e af99 10bd
000001c0: a52e 633d c65e 083d 91fa a63d ef98 70ba
000001d0: f75d 6d3d ccdc 003c a700 f93c 97e1 d3bd
000001e0: 88f6 c23d a4ce 663c 5fd6 893b afc5 273d
000001f0: b903 133c 4b44 aabd 480f 523e a4ba 133e
00000200: 0038 923c a2bd 09bd fbdc 89bd bab9 32bd
00000210: 5593 1abe 028d 58bd e139 03be 632d a1bb
00000220: 14c5 05bd 028d 7c3c 8efc a0bd 2369 44bd
00000230: 28a2 c2bd 11e6 2fbe ecf3 d1bd 66b6 21bc
00000240: dfc9 b3bc 8834 d2bd 7c22 c0bd d1ea a33d
00000250: e2b6 883c b41f 90bd 21c8 273e c629 c03d
00000260: 1c0c 183d 480c d63d 329c aa3d 4efd af3d
00000270: 7449 4e3d 4b00 b3bd 0ad4 58bd 0e44 f7bd
00000280: a7a2 f43d 8dc6 433c 6201 f53a 098b 9fbd
00000290: ddf3 23be f1c8 0fbd f5f6 de3d a2a7 953d
000002a0: deb2 38be 6f72 b8bd 50e9 813c 2cd0 2b3d
000002b0: e4fe c0bd c8d6 c23c c314 af3d 3191 56bc
000002c0: a059 773d a2a4 f03d 0219 8bbd 2a71 ef3d
000002d0: ab34 8a3d 72c3 083d d7a2 1d3e ca9f 603e
000002e0: 9598 23bd 0f0b 21bd 416f 2e3c 3c07 a8bc
000002f0: b7d9 bdbd c1ba a43d db4c 6c3e e4f3 bc3d
00000300: 4886 fcbc dae5 783d 9e7e 16bd 06de 0abd
00000310: 21c2 e73d 13ce 973d cbba d63c a463 1ebc
00000320: 384c 993c 4c6d 073d 6433 8a3d 0cb5 56bb
00000330: 89cf f4bd 7bd8 74bd c65a edbc 1ae0 1b3d
00000340: d017 093d 1392 133e dd7b c93d c919 d73d
00000350: c9f3 303e fcfe 6b3d 8ece 0abe 9c5e 68bc
00000360: 170f 653d edad af3c 94d1 153d b4b6 08bd
00000370: aeeb 003d e0a6 b73c 9d5f 943d 79e8 403e
00000380: 0150 563e d148 8e3c 1333 363e 2c60 6a3e
00000390: e11d c3bd 69f5 28bb 7e9b 3ebe f9fd 3f3c
000003a0: 1a79 413e a068 e03d 14e5 e73d 851d 773d
000003b0: b23b ca3d d1e6 d6bc b9a9 a63d e629 24bd
000003c0: 36ee 1dbe a9c3 98bc 8a14 f2bd e0f5 a4bd
000003d0: bcd2 273e 8105 823d d509 6bbe 06f1 063d
000003e0: cb1e 34be ef4d a13d a4f7 483e 3dc1 2f3e
000003f0: 8ec1 a93d d955 b23c d245 143e b1db f5bb

features.3.bias f4 [32]
0.059838332 -0.055225216 0.0098609505 0.062479403 0.04540082 0.03753661 0.06824224 0.036953893
0.030314442 -0.07019917 -0.082236946 -0.022116693 0.0060745305 -0.04428103 0.009881491 0.06835753
0.033169735 -0.03188927 0.016637525 0.0952233 -0.0074740336 -0.15460825 0.033493325 0.018358441
0.114364356 -0.07105724 0.051276222 0.03818333 -0.043743845 -0.012921648 -0.06205855 0.07168614
00000000: 0a19 753d d633 62bd d38f 213c 67ea 7f3d
00000010: 36f6 393d fdbf 193d 96c2 8b3d f75c 173d
00000020: fe55 f83c 95c4 8fbd d86b a8bd 112e b5bc
00000030: db0c c73b 0660 35bd fae5 213c 08ff 8b3d
00000040: fddc 073d 539e 02bd 6b4b 883c 6f04 c33d
00000050: bde8 f4bb a051 1ebe 4c30 093d 7164 963c
00000060: dc37 ea3d 7586 91bd 0407 523d 2066 1c3d
00000070: bf2c 33bd 52b5 53bc 1b31 7ebd 2fd0 923d

features.5.weight f4 [32]
1.1432034 0.94321287 0.9469381 0.9612624 0.94321686 0.9079767 0.98913145 0.8563509
1.1236733 0.97779906 1.1617817 1.0002762 0.9886752 0.9782372 1.0477021 0.87045497
1.0351878 1.0263623 1.0692711 1.0095601 0.91282636 1.0518146 1.0100062 0.91004336
1.0105934 0.9791462 0.79100555 0.9744357 0.88218796 1.1466075 0.9199678 1.0198431
00000000: 7d54 923f 6676 713f 896a 723f 4b15 763f
00000010: a976 713f 2971 683f b837 7d3f d039 5b3f
00000020: 87d4 8f3f 0a51 7a3f 43b5 943f 0d09 803f
00000030: d119 7d3f c16d 7a3f 1a1b 863f 23d6 5e3f
00000040: 0981 843f d75f 833f e0dd 883f 4439 813f
00000050: fdae 693f dca1 863f e247 813f 9af8 683f
00000060: 205b 813f 53a9 7a3f 577f 4a3f 9e74 793f
00000070: 12d7 613f 09c4 923f 0283 6b3f 388a 823f

features.5.bias f4 [32]
-0.038429342 0.049566492 0.07679502 0.039810903 -0.09325759 0.15577605 0.12213391 -0.014977752
-0.23354873 -0.13433844 -0.08391867 0.0537231 0.09495919 -0.10911451 0.13029559 -0.035133462
0.10876946 -0.0044938885 -0.14654532 0.23482324 0.08490679 -0.004632205 -0.0662288 0.17478172
0.2143009 0.08755092 0.04171847 -0.30510336 -0.11546898 0.023358254 0.054120656 0.16973309
00000000: 1668 1dbd 3c06 4b3d b546 9d3d c210 233d
00000010: d6fd bebd c283 1f3e 5821 fa3d 3f65 75bc
00000020: 6627 6fbe 0490 09be 8ddd abbd c10c 5c3d
00000030: f779 c23d 6e77 dfbd 356c 053e 1be8 0fbd
00000040: 86c2 de3d 7841 93bb fa0f 16be 8175 703e
00000050: 9ce3 ad3d c0c9 97bb f7a2 87bd fbf9 323e
00000060: b271 5b3e e64d b33d fde0 2a3d 8236 9cbe
00000070: 007b ecbd cf59 bf3c 9fad 5d3d 83ce 2d3e

features.5.running_mean f4 [32]
0.9821402 0.90110433 0.15634404 0.3047703 0.56273353 0.35149327 1.0248901 0.80628
0.3858851 1.0135453 0.9399791 -0.10888698 0.5206773 0.88161844 0.51226807 0.64326364
0.3135024 0.069365375 0.651416 0.4847702 0.087032385 0.15029643 0.6624122 0.72381896
0.6157362 0.11840701 0.8511769 0.6360191 0.19582517 0.42183137 0.78339016 0.5670284
00000000: 8a6d 7b3f c6ae 663f a718 203e da0a 9c3e
00000010: 4e0f 103f edf6 b33e 992f 833f 5e68 4e3f
00000020: bb92 c53e dabb 813f 78a2 703f 2300 dfbd
00000030: 1c4b 053f bfb1 613f 0024 033f edac 243f
00000040: 6383 a03e 6f0f 8e3d 33c3 263f cd33 f83e
00000050: 093e b23d 4fe7 193e d993 293f 334c 393f
00000060: e3a0 1d3f 607f f23d bbe6 593f 26d2 223f
00000070: 6586 483e 48fa d73e 428c 483f c628 113f

features.5.running_var f4 [32]
2.527315 20.387293 5.4179497 3.5598722 1.6491785 11.032787 2.468327 2.3146398
1.0585355 12.722519 6.6538143 4.461411 25.311106 5.780034 13.3574095 15.908559
8.67611 10.2828665 1.4625262 2.3912761 2.6906135 2.4886682 2.7779644 14.15349
2.1245074 1.5293694 12.72471 8.043196 5.8010225 19.430431 11.004651 1.6684611
00000000: 87bf 2140 2d19 a341 d85f ad40 f2d4 6340
00000010: 4818 d33f 4c86 3041 12f9 1d40 0f23 1440
00000020: 177e 873f 708f 4b41 0cec d440 e1c3 8e40
00000030: 257d ca41 0af6 b840 f3b7 5541 7589 7e41
00000040: 59d1 0a41 9f86 2441 0f34 bb3f ab0a 1940
00000050: 0333 2c40 5746 1f40 2bca 3140 b274 6241
00000060: eef7 0740 60c2 c33f 6a98 4b41 eeb0 0041
00000070: faa1 b940 8671 9b41 0d13 3041 2290 d53f

features.6.weight f4 [32, 32, 3, 3]
-0.011915096 0.021658102 0.024291273 -0.028414838 -0.15211688 -0.1235336 0.030019984 -0.080048196
-0.039828125 -0.045148052 0.039389696 0.08213326 -0.09399691 -0.06905073 -0.24382009 -0.008395972
-0.021559158 -0.10771261 0.08458566 0.15681851 -0.031934332 -0.05206621 -0.08187576 -0.21509385
-0.07378619 -0.11160021 -0.051372454 0.046259936 0.0019997049 0.009498125 0.010865954 -0.03465305
-0.06979926 0.03922802 0.05785926 0.02111207 -0.011300439 -0.013154718 -0.20089999 -0.046862468
-0.08255006 -0.12065657 0.10295328 0.08055491 -0.124692515 -0.04133093 0.06524105 -0.05250935
-0.14936922 -0.085622296 -0.17576925 -0.015596811 -0.024686195 -0.08959775 0.0011374915 -0.075528584
-0.018539468 -0.037154935 -0.059531458 -0.05301164 0.031798325 -0.1737395 -0.22737803 0.020576729
-0.014930827 0.106567085 -0.037135575 -0.23458952 -0.11291219 -0.029640164 -0.22318348 -0.04403487
0.043657605 0.026003236 -0.057418715 0.106113486 0.04607373 0.046843622 0.08545468 -0.0311078
-0.03600674 0.06723896 0.027308417 0.018612232 -0.005424229 0.030344239 -0.12362671 0.026206134
0.00973886 -0.11013946 0.11335054 -0.039431807 0.1170908 0.07230582 -0.06381431 -0.08996688
0.012141608 -0.1472267 -0.10334896 -0.025061984 0.08421629 0.098478235 0.10364157 -0.03491841
-0.102249436 0.009581303 0.030470194 -0.028404962 -0.06708756 0.074596144 0.092137344 -0.102845885
0.014763845 0.02501762 -0.09601182 0.026980514 -0.1278371 -0.025120739 -0.106762916 0.020775715
-0.012224285 -0.022989623 -0.11017937 -0.013049841 -0.065820895 -0.19726855 -0.1619804 -0.0151099665
0.11145214 -0.00752938 0.04759231 0.023143325 -0.13005596 -0.043382216 -0.004074343 0.04806629
-0.040372394 0.055973392 -0.018222436 -0.14889663 -0.13136409 0.0056243655 -0.10255342 -0.0631433
-0.059710383 0.010697709 0.06951977 0.090238914 0.11936334 -0.015326919 -0.09361722 0.040565886
-0.0049844775 -0.04312256 0.15749872 0.04036879 -0.11344961 0.0477263 -0.05829697 -0.0053772572
-0.072666675 -0.10460693 -0.16571605 0.0039788843 0.1602691 0.019915264 -0.11838855 -0.020813065
-0.005488061 -0.25564063 0.00904777 0.06389928 0.2575412 0.0164328 -0.12488717 0.035520867
-0.26741353 -0.09944264 -0.16765442 -0.14348322 -0.073754124 0.0118795205 0.105974846 -0.10281126
-0.03794145 -0.2255981 -0.16557275 -0.1846824 -0.15255806 0.20092976 0.032440875 -0.043275468
0.13708681 -0.1118053 0.034577735 -0.05191017 0.02902065 -0.048185203 -0.005695971 -0.030130448
0.13034026 0.15710734 0.010242665 0.052501477 0.054231804 0.009798583 -0.10215203 -0.16759071
-0.037167136 -0.008268828 -0.084579386 0.0054900427 0.049585115 -0.04080898 -0.10845329 -0.11015843
-0.04006274 0.005773173 0.08609811 -0.124666706 0.06629965 0.034498 -0.08491164 -0.02611518
-0.083164036 -0.0010844113 -0.0314504 0.1765505 0.11682054 -0.024199063 0.15525365 0.10227184
0.04304318 -0.02000867 -0.15225437 -0.049755633 0.10561305 -0.0010946704 0.07304024 0.101057194
-0.14039665 -0.102478 -0.09313782 0.039962687 -0.18448874 -0.08819629 -0.08981189 -0.0008351552
-0.03877867 0.059054513 -0.07338035 -0.11352086 0.015499295 0.07576889 0.06596011 0.020627098
00000000: 8937 43bc 556c b13c 7efe c63c 3cc6 e8bc
00000010: 87c4 1bbe 2fff fcbd 78ec f53c 4ff0 a3bd
00000020: d122 23bd 2aed 38bd 1757 213d 7c35 a83d
00000030: 7481 c0bd 786a 8dbd f9ab 79be 428f 09bc
00000040: d59c b0bc 6e98 dcbd 3f3b ad3d 0895 203e
00000050: 93cd 02bd 6143 55bd 7aae a7bd 9041 5cbe
00000060: 371d 97bd a78e e4bd ec6b 52bd 0f7b 3d3d
00000070: 7b0d 033b 069e 1b3c 1d07 323c 5bf0 0dbd
00000080: eaf2 8ebd 8fad 203d d5fd 6c3d 38f3 ac3c
00000090: 7a25 39bc e386 57bc bab8 4dbe dcf2 3fbd
000000a0: 0110 a9bd cb1a f7bd 2bd9 d23d f9f9 a43d
000000b0: ca5e ffbd 9f4a 29bd 1a9d 853d 0b14 57bd
000000c0: 3ff4 18be be5a afbd dbfc 33be c489 7fbc
000000d0: b43a cabc 067f b7bd e217 953a bbae 9abd
000000e0: 15e0 97bc c62f 18bd 42d7 73bd bc22 59bd
000000f0: f63e 023d c4e8 31be c9d5 68be 8790 a83c
00000100: 6da0 74bc d83f da3d 791b 18bd 3c38 70be
00000110: 823e e7bd eecf f2bc 368a 64be e85d 34bd
00000120: 51d2 323d bd04 d53c e32f 6bbd 0752 d93d
00000130: cfb7 3c3d 19df 3f3d dd02 af3d c9d5 febc
00000140: ce7b 13bd 94b4 893d e7b5 df3c ae78 983c
00000150: bbbd b1bb 7b94 f83c 0030 fdbd 3fae d63c
00000160: bd8f 1f3c cc90 e1bd 5424 e83d 3f83 21bd
00000170: 4dcd ef3d 1315 943d 14b1 82bd 8e40 b8bd
00000180: 98ed 463c 99c2 16be 9fa8 d3bd ca4e cdbc
00000190: 9779 ac3d f5ae c93d 0842 d43d 9b06 0fbd
000001a0: 2768 d1bd e6fa 1c3c a19c f93c 86b1 e8bc
000001b0: 3465 89bd ddc5 983d 81b2 bc3d dda0 d2bd
000001c0: 0ee4 713c c0f1 cc3c d8a1 c4bd 3d06 dd3c
000001d0: bbe7 02be 02ca cdbc 84a6 dabd d531 aa3c
000001e0: 5e48 48bc bc54 bcbc b9a5 e1bd 00cf 55bc
000001f0: 1bcd 86bd c400 4abe 31de 25be cb8f 77bc
00000200: 0541 e43d 04b9 f6bb 27f0 423d 1297 bd3c
00000210: 642d 05be 8db1 31bd 1182 85bb 28e1 443d
00000220: 865d 25bd 5b44 653d 3847 95bc 5c78 18be
00000230: 4f84 06be 994c b83b 8707 d2bd 4651 81bd
00000240: e092 74bd 7245 2f3c 6260 8e3d 2ecf b83d
00000250: c474 f43d c21d 7bbc 63ba bfbd 6a28 263d
00000260: d454 a3bb 48a1 30bd 5847 213e bf59 253d
00000270: 4558 e8bd a77c 433d cec8 6ebd b433 b0bb
00000280: 44d2 94bd 283c d6bd 78b1 29be 4d61 823b
00000290: 951d 243e 5625 a33c b275 f2bd 2980 aabc
000002a0: 31d5 b3bb 54e3 82be 193d 143c a0dd 823d
000002b0: 71dc 833e 149e 863c d8c4 ffbd 547e 113d
000002c0: 6dea 88be 95a8 cbbd 9aad 2bbe 44ed 12be
000002d0: 670c 97bd 52a2 423c 5709 d93d b68e d2bd
000002e0: 7e68 1bbd 3003 67be e78b 29be 621d 3dbe
000002f0: 2e38 1cbe 88c0 4d3e b9e0 043d 9e41 31bd
00000300: 7c60 0c3e 2dfa e4bd 62a1 0d3d c29f 54bd
00000310: b7bc ed3c d95d 45bd 45a5 babb 21d4 f6bc
00000320: eb77 053e bfe0 203e dad0 273c ca0b 573d
00000330: 2b22 5e3d 3c8a 203c 1535 d1bd e69c 2bbe
00000340: 913c 18bd fa79 07bc f537 adbd d1e5 b33b
00000350: c319 4b3d 5127 27bd c21c debd be9a e1bd
00000360: d418 24bd e32c bd3b 3554 b03d 4251 ffbd
00000370: 1cc8 873d c64d 0d3d 27e6 adbd 81ef d5bc
00000380: e851 aabd ce22 8eba 22d2 00bd a7c9 343e
00000390: 9b3f ef3d 1d3d c6bc d0fa 1e3e e673 d13d
000003a0: 0c4e 303d 39e9 a3bc 92e8 1bbe 90cc 4bbd
000003b0: a84b d83d 0b7b 8fba 1f96 953d 13f7 ce3d
000003c0: 24c4 0fbe fcdf d1bd 0bbf bebd eaaf 233d
000003d0: 9eea 3cbe 42a0 b4bd 4cef b7bd 51ee 5aba
000003e0: 62d6 1ebd 25e3 713d 7048 96bd a07d e8bd
000003f0: c1f0 7d3c b82c 9b3d 1816 873d 29fa a83c

features.6.bias f4 [32]
0.05589533 0.011167955 -0.04572439 -0.025991289 -0.042861886 -0.04571904 -0.0043521044 0.023474207
-0.022218969 0.0020109157 0.020020045 -0.0478351 -0.027905785 -0.030788824 -0.02381792 0.074580215
0.00022916771 0.05644038 0.018734826 0.022777874 -0.04165963 -0.026669092 0.005851103 -0.0073081814
-0.064608894 -0.054087285 0.041247826 -0.057813533 -0.0053546196 0.044980075 0.08919686 -0.08373052
00000000: 80f2 643d ccf9 363c 7f49 3bbd afeb d4bc
00000010: f28f 2fbd e343 3bbd 199c 8ebb fb4c c03c
00000020: 8e04 b6bc 91c9 033b 1401 a43c bdee 43bd
00000030: ac9a e4bc d838 fcbc cc1d c3bc 83bd 983d
00000040: bd4c 7039 072e 673d c779 993c aa98 ba3c
00000050: 4aa3 2abd 2479 dabc 9cba bf3b 7879 efbb
00000060: ab51 84bd a18a 5dbd 7bf3 283d e2cd 6cbd
00000070: ce75 afbb 073d 383d d8ac b63d e87a abbd

features.8.weight f4 [32]
0.93246156 0.90309405 1.0578287 1.0336326 0.9734046 0.9219747 0.8763017 1.1838057
0.8303863 1.0859897 1.0183597 1.1667459 0.92907685 0.96728826 1.0464906 1.057001
0.9287959 1.0318055 0.9856751 0.73863024 1.035414 1.0158336 0.9499065 1.0666866
1.0368084 1.0555122 0.97519666 0.8865959 1.0130742 1.0492824 1.1315796 0.9812208
00000000: cdb5 6e3f 2c31 673f ee66 873f 134e 843f
00000010: 0b31 793f 8906 6c3f 4f55 603f f286 973f
00000020: 3294 543f b601 8b3f 9c59 823f ee57 953f
00000030: fbd7 6d3f 34a0 773f 67f3 853f cf4b 873f
00000040: 91c5 6d3f 3412 843f 3455 7c3f df16 3d3f
00000050: 7288 843f d606 823f 132d 733f 3089 883f
00000060: 23b6 843f 061b 873f 7da6 793f f3f7 623f
00000070: 6aac 813f e34e 863f 9ad7 903f 4931 7b3f

features.8.bias f4 [32]
-0.020096593 0.074161306 0.03384765 0.086365506 0.024577307 0.032913603 -0.017062854 0.11923895
-0.079085775 -0.18606134 -0.009924655 0.030748578 0.15360509 0.082194604 -0.032935515 0.048288066
0.033055637 0.016932435 0.013149787 0.07984542 -0.023340765 0.1251926 0.069392875 0.048071165
0.09229806 0.032739244 0.19814524 -0.046670627 -0.11431547 -0.2245668 0.07249616 0.03864484
00000000: 9ca1 a4bc e2e1 973d d5a3 0a3d 66e0 b03d
00000010: 5956 c93c 6ad0 063d 66c7 8bbc 8d33 f43d
00000020: b9f7 a1bd dd86 3ebe 059b 22bc 71e4 fb3c
00000030: a74a 1d3e a555 a83d 64e7 06bd b5c9 453d
00000040: 5965 073d e4b5 8a3c 3472 573c ff85 a33d
00000050: 2235 bfbc 7d32 003e da1d 8e3d 45e6 443d
00000060: c406 bd3d 9619 063d 96e6 4a3e b329 3fbd
00000070: 3b1e eabd d7f4 65be de78 943d 0d4a 1e3d

features.8.running_mean f4 [32]
0.9526828 0.89309055 2.397728 1.0897682 1.319657 1.038669 1.5036503 0.91999155
0.68937707 0.79195756 0.7880645 1.2796922 1.3783293 0.5758393 0.8580179 1.7138323
0.73329335 0.72792596 1.2168232 1.5681003 1.4605451 1.5418339 2.116443 0.3639384
1.9351629 1.0228585 2.4444654 1.2961078 1.1688844 1.4744105 1.3066403 0.6158215
00000000: 05e3 733f 95a1 643f 6074 1940 867d 8b3f
00000010: 85ea a83f 1bf3 843f 9d77 c03f 9184 6b3f
00000020: 047b 303f bbbd 4a3f 98be 493f f4cc a33f
00000030: 186d b03f 346a 133f 10a7 5b3f db5e db3f
00000040: 1db9 3b3f 5b59 3a3f ddc0 9b3f 83b7 c83f
00000050: 24f3 ba3f d05a c53f cd73 0740 2256 ba3e
00000060: 6bb3 f73f 07ed 823f 1f72 1c40 dce6 a53f
00000070: 019e 953f 7cb9 bc3f fd3f a73f 7aa6 1d3f

features.8.running_var f4 [32]
18.119394 14.274628 49.646355 30.98304 53.149803 23.216206 8.86761 27.385353
18.413982 16.440374 10.394074 27.56029 21.446156 12.563477 15.567569 66.5429
30.946083 9.141446 8.933636 35.50752 20.869404 56.031242 30.720768 8.049577
19.680773 23.343012 27.786358 14.465927 27.645838 28.27207 5.591706 8.4775095
00000000: 85f4 9041 e064 6441 de95 4642 44dd f741
00000010: 6699 5442 caba b941 bbe1 0d41 3415 db41
00000020: d64f 9341 e385 8341 214e 2641 797b dc41
00000030: ba91 ab41 0004 4941 c314 7941 f715 8542
00000040: 9491 f741 5d43 1241 2cf0 0e41 b307 0e42
00000050: 8af4 a641 fe1f 6042 22c4 f541 11cb 0041
00000060: 3972 9d41 7dbe ba41 764a de41 7074 6741
00000070: ad2a dd41 332d e241 41ef b240 e1a3 0741

features.9.weight f4 [32, 32, 3, 3]
-0.032678083 0.023682745 0.06761788 0.080466166 0.08323218 0.015419048 -0.046141766 -0.008445741
-0.0017612365 -0.027953481 -0.029911874 0.031249372 0.10797863 -0.05015575 -0.040528107 0.18362662
0.11502978 0.1358626 -0.09512937 -0.09101487 0.021255437 -0.06111447 -0.13379224 0.06306383
-0.11736149 -0.12418853 -0.08165328 -0.09776578 -0.048799384 -0.013642213 -0.1854101 -0.14574385
0.003585801 -0.055433687 0.019711742 0.015692413 -0.16443987 -0.020675248 0.03669651 -0.17775671
-0.08834449 -0.123133086 -0.2041039 -0.1460241 -0.049972177 -0.082151964 -0.1324064 -0.02054606
-0.12392379 -0.16400802 -0.15845218 0.011076138 0.0041061174 0.06087544 -0.034945488 -0.10617968
-0.043166835 -0.058509365 -0.09569697 -0.15095668 0.039163634 0.06898573 -0.047828652 0.059115887
0.05602076 0.09397686 0.008272205 -0.040873457 0.0085132485 -0.07799922 0.013229531 -0.06904719
0.10762068 0.059783302 0.03351453 0.14475259 0.048213694 0.08322073 0.075323604 -0.022463743
0.043550633 -0.06790564 -0.09643263 -0.049166653 -0.1180913 -0.058554 -0.043836795 0.093898915
0.035539772 0.01773272 -0.04445802 -0.012924195 0.015280976 -0.121156566 -0.12293939 -0.15664801
-0.054279074 0.05045964 0.15266119 -0.1456051 -0.055353496 -0.026802361 -0.036318526 -0.05912234
0.020352317 0.08547876 -0.047955748 0.019178314 -0.17049353 -0.07225164 -0.0054261335 -0.21626557
-0.09687596 -0.15651196 -0.10652758 -0.083374 -0.07203921 -0.116022855 -0.06596051 0.074468546
-0.09171743 -0.090192296 -0.09309473 -0.1498649 -0.089068435 -0.037491426 0.008879666 -0.0138530815
0.046763513 -0.08595171 0.0015870908 -0.010621357 0.040404797 0.06452723 0.017033817 -0.15643062
-0.07214068 0.016634911 -0.1933235 -0.10211257 0.011371097 0.04960595 0.03305615 0.078471296
-0.17694302 -0.055927422 -0.025588801 -0.11588036 -0.10440143 -0.07931081 -0.010178654 0.0074241855
0.08364128 0.068239845 0.023665829 0.21814181 0.051842097 0.033804096 0.087263204 0.056215152
0.04502508 0.030652918 -0.010505207 0.0011526664 -0.07106443 -0.08689059 -0.11695591 -0.10234861
0.04065707 0.013898836 -0.007625264 -0.12676698 -0.052589368 0.03564194 -0.2603193 -0.18842827
-0.05535652 -0.03946642 -0.073279336 -0.007313502 0.0051149926 -0.060509272 -0.02698127 -0.16297132
-0.13173315 0.036806203 0.023307716 -0.034428872 -0.031288635 -0.09746254 -0.09440427 0.006360064
-0.11892556 -0.083413914 -0.038618974 -0.14492626 -0.10927421 0.015256566 -0.091751 -0.019183977
-0.03715264 -0.032549 -0.107237294 0.032265663 -0.1748589 -0.18034226 -0.12385236 -0.09797743
0.037532795 0.200918 -0.057177912 -0.14323099 -0.013707878 -0.06388817 0.03387295 0.010546868
0.088331394 0.13109204 0.036729947 0.007670164 -0.014382921 0.05324578 -0.025138883 0.0071407673
-0.017790843 -0.115126975 0.021845318 0.06049915 -0.09855148 -0.030069761 0.017560562 -0.14504816
-0.1110124 0.013022728 -0.06895605 0.006050983 -0.016937407 -0.067151085 -0.051415876 -0.009274445
-0.24788356 -0.25736398 -0.05679209 -0.099285886 -0.048058163 -0.1887758 -0.07852825 -0.019794462
-0.072246425 -0.07540299 6.188242e-05 -0.022437563 -0.060751338 -0.0142093375 0.010513828 -0.05430566
00000000: 74d9 05bd 5102 c23c 3e7b 8a3d 72cb a43d
00000010: a275 aa3d 2da0 7c3c 26ff 3cbd 0160 0abc
00000020: 4ad9 e6ba b3fe e4bc bf09 f5bc affe ff3c
00000030: e623 dd3d 1e70 4dbd cd00 26bd 9e08 3c3e
00000040: bc94 eb3d 911f 0b3e 30d3 c2bd 0166 babd
00000050: e21f ae3c 2b53 7abd d500 09be 9c27 813d
00000060: 395b f0bd 8e56 febd d639 a7bd 6d39 c8bd
00000070: dde1 47bd 9783 5fbc 25dc 3dbe e03d 15be
00000080: c2ff 6a3b 6f0e 63bd 857a a13c 608d 803c
00000090: ed62 28be 235f a9bc 144f 163d db05 36be
000000a0: f5ed b4bd 332d fcbd 9d00 51be 5787 15be
000000b0: a0af 4cbd 4a3f a8bd 8b95 07be 3650 a8bc
000000c0: c2cb fdbd b8f1 27be 4a41 22be b178 353c
000000d0: 9c8c 863b 8658 793d 0023 0fbd bb74 d9bd
000000e0: b5cf 30bd 84a7 6fbd c6fc c3bd 6394 1abe
000000f0: 0c6a 203d 6448 8d3d fae7 43bd 8023 723d
00000100: 0676 653d f176 c03d 2488 073c ed6a 27bd
00000110: 277b 0b3c 0ebe 9fbd adc0 583c 9d68 8dbd
00000120: 3b68 dc3d 56df 743d 8846 093d 063a 143e
00000130: b97b 453d a16f aa3d 4343 9a3d e205 b8bc
00000140: 2662 323d 1d12 8bbd 797e c5bd f962 49bd
00000150: dad9 f1bd 52d6 6fbd 368e 33bd 134e c03d
00000160: 2792 113d 3644 913c 9d19 36bd 01c0 53bc
00000170: 0f5d 7a3c ef20 f8bd a6c7 fbbd 5668 20be
00000180: bc53 5ebd c4ae 4e3d 3753 1c3e 8119 15be
00000190: 59ba 62bd a090 dbbc bcc2 14bd 442a 72bd
000001a0: e7b9 a63c 7d0f af3d 3f6d 44bd d71b 9d3c
000001b0: db95 2ebe abf8 93bd b5cd b1bb b974 5dbe
000001c0: e766 c6bd ac44 20be 222b dabd fdbf aabd
000001d0: 4b89 93bd 649d edbd 4e16 87bd f782 983d
000001e0: 59d6 bbbd bdb6 b8bd 73a8 bebd 2f76 19be
000001f0: 8369 b6bd 9c90 19bd 057c 113c 09f8 62bc
00000200: 198b 3f3d 7307 b0bd ee05 d03a 3305 2ebc
00000210: 807f 253d da26 843d 818a 8b3c 592f 20be
00000220: 7ebe 93bd f045 883c 98f6 45be 6520 d1bd
00000230: d64d 3a3c 9c2f 4b3d e365 073d 8fb5 a03d
00000240: 8d30 35be 2714 65bd 9b9f d1bc af52 edbd
00000250: 6bd0 d5bd b56d a2bd 5fc4 26bc 9546 f33b
00000260: 1f4c ab3d 55c1 8b3d d7de c13c 9160 5f3e
00000270: 6158 543d 2a76 0a3d 0db7 b23d dc41 663d
00000280: 386c 383d d41b fb3c 081e 2cbc 1115 973a
00000290: 3a8a 91bd b2f3 b1bd 9586 efbd 269c d1bd
000002a0: 0788 263d f2b7 633c 5add f9bb 34cf 01be
000002b0: f367 57bd 48fd 113d 9248 85be 57f3 40be
000002c0: 85bd 62bd 8aa7 21bd 7a13 96bd 1aa6 efbb
000002d0: ab9b a73b 92d8 77bd d307 ddbc f4e1 26be
000002e0: 0ee5 06be 1ac2 163d d3ef be3c 4a05 0dbd
000002f0: 8328 00bd 719a c7bd 0757 c1bd 1568 d03b
00000300: 3e8f f3bd ead4 aabd ee2e 1ebd 8d67 14be
00000310: 28cb dfbd adf6 793c f3e7 bbbd b727 9dbc
00000320: 5e2d 18bd 1a52 05bd 3a9f dbbd 0029 043d
00000330: 360e 33be a4ab 38be 4ea6 fdbd 64a8 c8bd
00000340: fdbb 193d 73bd 4d3e 6333 6abd 25ab 12be
00000350: 0297 60bc cdd7 82bd 5dbe 0a3d c5cc 2c3c
00000360: 17e7 b43d fe3c 063e 2472 163d 0056 fb3b
00000370: 58a6 6bbc 3f18 5a3d 0ff0 cdbc 19fd e93b
00000380: 1abe 91bc b1c7 ebbd f4f4 b23c f5cd 773d
00000390: 5cd5 c9bd dc54 f6bc 2bdb 8f3c 8187 14be
000003a0: 785a e3bd 485d 553c d438 8dbd 5347 c63b
000003b0: 51c0 8abc 8286 89bd 7499 52bd d7f3 17bc
000003c0: 30d5 7dbe 36c5 83be d39e 68bd 6656 cbbd
000003d0: a3d8 44bd 714e 41be 6bd3 a0bd ff27 a2bc
000003e0: eff5 93bd e26c 9abd dfc6 8138 fbce b7bc
000003f0: 65d6 78bd 48ce 68bc 3142 2c3c 9d6f 5ebd

features.9.bias f4 [32]
-0.0005748378 0.010629481 0.014266153 -0.038938098 -0.01754629 -0.02050787 0.035958346 0.006514717
0.025212672 0.049693853 0.039838206 0.069168374 0.026680993 0.0062842895 -0.029590396 0.02468611
-0.059945695 -0.051683646 -0.005585169 -0.011160932 -0.016365804 0.034742117 -0.034380686 0.037783585
0.03818022 0.020325696 -0.016052656 -0.051871795 -0.004858151 0.046821002 0.009010643 0.067827985
00000000: b6b0 16ba 4627 2e3c 95bc 693c 8e7d 1fbd
00000010: 3dbd 8fbc 1f00 a8bc 0f49 133d 6879 d53b
00000020: ce8a ce3c c88b 4b3d 632d 233d 26a8 8d3d
00000030: 1992 da3c 71ec cd3b 8f67 f2bc 863a ca3c
00000040: 9e89 75bd 3bb2 53bd cb03 b7bb 57dc 36bc
00000050: 9411 86bc c04d 0e3d c3d2 0cbd f6c2 1a3d
00000060: dd62 1c3d 1382 a63c dc80 83bc 8577 54bd
00000070: 2031 9fbb 61c7 3f3d 60a1 133c 66e9 8a3d

features.11.weight f4 [32]
0.8596633 0.9959358 0.9508921 0.9940421 1.0636317 1.0685544 0.9438926 0.9885456
0.94466966 0.8911566 0.9963095 1.0170363 1.0382094 1.0025799 0.89450884 1.0466524
0.8666327 1.0228624 0.8732461 1.0228878 1.0947257 0.9983438 1.0558718 1.0294924
1.0203744 1.0403835 1.0547049 0.95124584 1.0092446 0.8044908 0.8629897 1.1052744
00000000: e512 5c3f a6f5 7e3f aa6d 733f 8b79 7e3f
00000010: 1525 883f 64c6 883f f2a2 713f 5311 7d3f
00000020: dfd5 713f d722 643f 240e 7f3f 3f2e 823f
00000030: 0ce4 843f 8a54 803f 88fe 643f b5f8 853f
00000040: a4db 5d3f 28ed 823f 0e8d 5f3f fded 823f
00000050: f91f 8c3f 7693 7f3f cf26 873f 68c6 833f
00000060: a19b 823f 492b 853f 9200 873f d984 733f
00000070: ed2e 813f 1cf3 4d3f e5ec 5c3f a279 8d3f

features.11.bias f4 [32]
0.015259473 0.030552598 -0.005020894 -0.0012104589 -0.0009856527 0.001107208 0.010551568 0.033611145
0.010752457 -0.012013626 -0.0096896505 0.011198769 0.013835996 0.024636954 0.02204488 0.014426798
0.014713765 -0.0089353975 -8.748112e-05 -0.0074368995 0.005953982 -0.02266304 0.04716215 0.013887446
-0.022320379 0.049613558 -0.0077094245 -0.022681342 -0.0444186 -0.003571008 -0.002776969 -0.033978958
00000000: de02 7a3c 7149 fa3c 5086 a4bb 43a8 9eba
00000010: 0431 81ba bc1f 913a 7ce0 2c3c d7ab 093d
00000020: 132b 303c cdd4 44bc 57c1 1ebc 0b7b 373c
00000030: 60b0 623c 70d3 c93c 7797 b43c 605e 6c3c
00000040: 0112 713c c665 12bc 1276 b7b8 3cb1 f3bb
00000050: 9f19 c33b d7a7 b9bc 192d 413d 2c88 633c
00000060: 3ad9 b6bc 9637 4b3d 579f fcbb 39ce b9bc
00000070: 47f0 35bd 9307 6abb cffd 35bb 852d 0bbd

features.11.running_mean f4 [32]
0.75555515 3.1649077 3.5096395 1.9601368 3.5369253 2.0907607 2.4928565 1.6845754
3.4041362 1.9167657 2.9199855 1.8333623 1.5744964 0.9364413 3.567687 1.4262894
1.2597216 2.7426686 2.4472897 1.5516117 2.268151 1.6434644 1.3636382 3.3058379
3.3512666 1.3771605 2.9771795 3.7676425 3.174234 2.216396 1.089961 2.550121
00000000: 106c 413f d98d 4a40 ef9d 6040 c3e5 fa3f
00000010: fc5c 6240 06cf 0540 f68a 1f40 2ba0 d73f
00000020: 5edd 5940 9458 f53f 0be1 3a40 9eab ea3f
00000030: 1989 c93f 9eba 6f3f fc54 6440 a790 b63f
00000040: 8f3e a13f e287 2f40 65a0 1c40 369b c63f
00000050: 6329 1140 0b5d d23f b28b ae3f d992 5340
00000060: 277b 5640 cc46 b03f 1c8a 3e40 0e21 7140
00000070: a626 4b40 6fd9 0d40 d883 8b3f 2f35 2340

features.11.running_var f4 [32]
31.960302 35.14126 26.420273 38.888336 102.99239 34.57594 15.507361 65.59243
15.5337925 19.520937 34.899788 29.656313 18.304419 11.139956 59.67967 18.06534
25.960434 83.65176 51.872543 36.10584 57.580074 19.312101 35.268574 43.12217
40.959023 24.000925 48.484497 57.325466 19.254904 27.4601 16.150328 103.62516
00000000: b3ae ff41 a690 0c42 b85c d341 a88d 1b42
00000010: 1bfc cd42 c34d 0a42 271e 7841 532f 8342
00000020: 6a8a 7841 e12a 9c41 6299 0b42 2140 ed41
00000030: 736f 9241 433d 3241 fbb7 6e42 d185 9041
00000040: f8ae cf41 b34d a742 7c7d 4f42 616c 1042
00000050: ff51 6642 2f7f 9a41 0513 0d42 1a7d 2c42
00000060: 0ad6 2342 e501 c041 20f0 4142 474d 6542
00000070: 0b0a 9a41 49ae db41 df33 8141 1540 cf42

last.0.weight f4 [16, 32, 1, 1]
0.045288976 0.107137404 0.120277435 0.04223268 -0.07224852 -0.08199496 -0.097421505 -0.06425245
0.20129481 0.14409855 0.13258356 -0.17299062 0.04105991 -0.104207076 0.11938925 -0.12165249
-0.0038811194 -0.10221604 -0.0131584685 -0.15168397 -0.22596207 -0.11542474 -0.16452919 -0.027962426
0.13780564 -0.19367078 -0.03763018 0.05351235 0.18934482 0.083347306 0.011374984 -0.3233308
0.0143149495 0.16886938 0.17495695 0.21796702 -0.041267775 0.19914791 -0.010981428 0.09133928
0.06918911 0.010334925 0.17724858 -0.08644069 0.18036552 -0.07153088 -0.07642859 -0.14343075
-0.26142138 0.08855403 -0.061824765 0.17339863 0.017665654 0.15105373 0.069711186 -0.11345674
-0.051648773 0.23662287 -0.08920588 0.01635689 0.20179372 0.12547755 -0.19218159 0.14410335
0.06748894 -0.21276577 -0.026163362 0.11331109 0.103020966 -0.1263201 -0.2680601 0.034637496
-0.11467017 -0.1440085 -0.29553798 0.028248478 0.15651305 -0.14650671 -0.052563474 -0.016264826
0.009747897 0.15294448 0.1556831 -0.010648765 -0.051825028 -0.08335773 0.21562931 -0.016014252
-0.12794834 -0.10200055 -0.101729825 -0.066383995 0.03247499 -0.094192505 0.15315957 -0.08621094
-0.10102232 0.01570201 0.012359954 -0.07382239 0.26954502 0.1112125 -0.07392141 0.07770249
-0.12594898 0.10679117 0.14869206 0.056481224 0.0034682043 0.19735454 0.24139337 -0.21080884
-0.048645336 0.099543706 0.1292535 0.19272679 -0.068401866 0.16009584 0.025359944 0.14017025
0.0438631 -0.048217043 0.21835311 0.056984805 0.19731274 -0.097764015 0.051873658 0.08400293
-0.029930906 -0.076899245 -0.10822599 0.18545887 -0.04611861 0.2302526 -0.08220251 0.23302628
0.08378728 0.0034211555 -0.05611124 0.07719768 0.08401338 0.13881527 -0.0065243696 -0.19423619
-0.104101084 0.11098369 -0.10205875 0.11634672 0.038901627 0.2651444 0.112325706 0.045716714
0.109806836 0.04376917 -0.19599478 0.064056434 0.037966575 -0.18906148 -0.023488384 -0.022352695
-0.011544369 -0.13972141 -0.0755636 0.1248604 0.071447104 0.0071924822 -0.08151735 -0.021867026
-0.07851881 -0.053205054 -0.10465232 0.25002035 0.25112316 0.24815689 -0.1519503 0.07771225
-0.015259939 0.011563892 0.096392035 0.06692303 0.119037196 0.06247518 0.2689336 -0.142018
-0.17621493 -0.054243963 0.03714927 0.10814494 -0.16056184 0.08817451 -0.025164 0.21437255
0.060033057 -0.013222171 -0.050992858 -0.055496138 -0.17392248 -0.18912417 -0.0609993 0.03509093
-0.10961118 -0.14552912 -0.059449047 0.031522024 -0.074072264 -0.12844671 -0.07215639 0.13212912
-0.021856185 -0.07609681 -0.106530264 0.14320332 0.100860454 -0.0056445943 -0.04467014 -0.20868534
-0.20275512 -0.15722738 -0.1985781 -0.24002925 -0.07568146 0.022822909 0.23174894 0.09489302
-0.043859657 0.26962 0.16098353 0.13506742 0.10505941 0.21623391 0.15886904 -0.102633364
0.055066768 0.009352636 0.19425178 -0.05988145 -0.015331833 -0.1540403 0.13714606 -0.21613087
-0.16535927 0.21097946 -0.07060885 -0.07913726 0.087934285 -0.024469722 -0.034108277 0.18664177
0.2997827 0.113123074 0.27000582 0.11011276 0.23856439 0.108271174 0.018439861 0.19478041
00000000: ef80 393d db6a db3d 0454 f63d 2dfc 2c3d
00000010: 08f7 93bd f9ec a7bd ed84 c7bd ca96 83bd
00000020: 3a20 4e3e 928e 133e fcc3 073e 7424 31be
00000030: 702e 283d 856a d5bd 5a82 f43d f124 f9bd
00000040: 615a 7ebb a556 d1bd 9e96 57bc 0b53 1bbe
00000050: 9a62 67be ce63 ecbd 577a 28be 7511 e5bc
00000060: ec1c 0d3e a251 46be 1b22 1abd c42f 5b3d
00000070: 9ce3 413e feb1 aa3d 245e 3a3c 9d8b a5be
00000080: 4089 6a3c 18ec 2c3e ea27 333e bf32 5f3e
00000090: 6608 29bd 6eed 4b3e 73eb 33bc 1710 bb3d
000000a0: 05b3 8d3d d153 293c a780 353e d107 b1bd
000000b0: bdb1 383e c87e 92bd 9886 9cbd 83df 12be
000000c0: 06d9 85be d15b b53d f73b 7dbd 698f 313e
000000d0: 90b7 903c d4ad 1a3e bdc4 8e3d 025c e8bd
000000e0: aa8d 53bd 444d 723e 93b1 b6bd e2fe 853c
000000f0: 03a3 4e3e 307d 003e 40cb 44be d48f 133e
00000100: a437 8a3d 45df 59be 8c54 d6bc a50f e83d
00000110: a8fc d23d 0e5a 01be 2c3f 89be 0ce0 0d3d
00000120: 32d8 eabd f776 13be c150 97be 5a69 e73c
00000130: f544 203e db05 16be cc4c 57bd d03d 85bc
00000140: a5b5 1f3c 7a9d 1c3e 646b 1f3e 2878 2ebc
00000150: 7b46 54bd 75b7 aabd eecd 5c3e 5230 83bc
00000160: e404 03be aae5 d0bd ba57 d0bd 55f4 87bd
00000170: 7f04 053d 00e8 c0bd ddd5 1c3e 5c8f b0bd
00000180: cae4 cebd 80a1 803c 6881 4a3c 3130 97bd
00000190: ce01 8a3e 61c3 e33d 1c64 97bd 7c22 9f3d
000001a0: c5f8 00be 54b5 da3d bb42 183e db58 673d
000001b0: d04a 633b 4f17 4a3e d32f 773e 46de 57be
000001c0: 5540 47bd 92dd cb3d 085b 043e 2c5a 453e
000001d0: 4716 8cbd 2af0 233e a8bf cf3c ca88 0f3e
000001e0: cba9 333d 3c7f 45bd f597 5f3e e668 693d
000001f0: 5a0c 4a3e 8038 c8bd 7979 543d ba09 ac3d
00000200: a931 f5bc 5a7d 9dbd 96a5 ddbd eee8 3d3e
00000210: dee6 3cbd 56c7 6b3e ca59 a8bd 719e 6e3e
00000220: aa98 ab3d 7735 603b e6d4 65bd d119 9e3d
00000230: 350f ac3d 9725 0e3e 61ca d5bb dae5 46be
00000240: f332 d5bd 6b4b e33d 2e04 d1bd 3047 ee3d
00000250: 5057 1f3d 02c1 873e 050b e63d 7341 3b3d
00000260: 68e2 e03d 4d47 333d dbb2 48be 0530 833d
00000270: d782 1b3d 5599 41be b66a c0bc 001d b7bc
00000280: 9824 3dbc 2113 0fbe 17c1 9abd cfb6 ff3d
00000290: dc52 923d eaae eb3b 92f2 a6bd 7a22 b3bc
000002a0: 78ce a0bd 8bed 59bd f553 d6bd ab02 803e
000002b0: 3793 803e d71c 7e3e dc98 1bbe 9a27 9f3d
000002c0: d304 7abc 7a76 3d3c 3069 c53d f10e 893d
000002d0: c6c9 f33d f9e5 7f3d aab1 893e 2b6d 11be
000002e0: b071 34be eb2e 5ebd d529 183d 187b dd3d
000002f0: 536a 24be d694 b43d bc24 cebc 7a84 5b3e
00000300: 39e5 753d cea1 58bc e3dd 50bd eb4f 63bd
00000310: bc18 32be c4a9 41be 67da 79bd 82bb 0f3d
00000320: d47b e0bd 9605 15be d880 73bd 3d1d 013d
00000330: 33b3 97bd 8987 03be bbc6 93bd db4c 073e
00000340: be0b b3bc a5d8 9bbd 8a2c dabd e4a3 123e
00000350: ed8f ce3d 4af6 b8bb 09f8 36bd 9cb1 55be
00000360: 0a9f 4fbe 3700 21be 0f58 4bbe 3aca 75be
00000370: e2fe 9abd 1cf7 ba3c 984f 6d3e 4657 c23d
00000380: 2fa6 33bd a20b 8a3e ded8 243e 1d4f 0a3e
00000390: 6329 d73d 6c6c 5d3e 91ae 223e 7131 d2bd
000003a0: b18d 613d cc3b 193c f0e9 463e 4046 75bd
000003b0: 5e32 7bbc bebc 1dbe 0470 0c3e 6951 5dbe
000003c0: f153 29be 000b 583e 5f9b 90bd b712 a2bd
000003d0: e416 b43d ba74 c8bc 1fb5 0bbd 051f 3f3e
000003e0: 1e7d 993e 12ad e73d 343e 8a3e cc82 e13d
000003f0: 394a 743e 47bd dd3d 310f 973c 8474 473e

last.0.bias f4 [16]
-0.095048465 0.09264537 0.090145774 -0.10694543 -0.12132216 0.07502506 -0.11442498 0.048987783
-0.014528607 0.029278796 0.0019496733 0.011859022 0.24965616 -0.068403356 0.11610527 -0.07641119
00000000: c5a8 c2bd dbbc bd3d 599e b83d 3506 dbbd
00000010: c177 f8bd bda6 993d a557 eabd 6aa7 483d
00000020: 6509 6ebc 16da ef3c 2e8c ff3a 584c 423c
00000030: dda5 7f3e 0f17 8cbd 9ac8 ed3d 787d 9cbd

last.1.weight f4 [16]
0.9963008 0.9170386 0.49115592 0.9670067 0.95797414 0.9834227 0.8837412 0.9932326
0.82137406 0.21299042 0.9482317 0.654098 0.9891984 0.91384786 0.99671227 0.8850985
00000000: 920d 7f3f 0bc3 6a3f ca78 fb3e c08d 773f
00000010: cb3d 753f 97c1 7b3f dd3c 623f 7e44 7e3f
00000020: 9245 523f 291a 5a3e 50bf 723f f772 273f
00000030: 1b3c 7d3f eff1 693f 8928 7f3f d195 623f

last.1.bias f4 [16]
0.0810802 -0.08050479 -0.097207986 -0.07528911 -0.08015412 -0.079209104 -0.048085015 0.07360709
0.07499381 -0.07955867 -0.08699581 -0.09107548 -0.07664533 -0.10375273 0.070690885 -0.06555019
00000000: 600d a63d b2df a4bd fb14 c7bd 2d31 9abd
00000010: d827 a4bd 6238 a2bd cbf4 44bd 50bf 963d
00000020: 5b96 993d a8ef a2bd dc2a b2bd c885 babd
00000030: 3af8 9cbd 507c d4bd 62c6 903d 2e3f 86bd

last.1.running_mean f4 [16]
-0.11511058 0.08691664 0.09545656 -0.1242493 -0.11627224 0.08739491 -0.117328286 0.022798859
0.002772937 0.05329969 0.007991773 0.03879825 0.27781522 -0.037738338 0.11418326 -0.073541455
00000000: 19bf ebbd 5a01 b23d bb7e c33d 6b76 febd
00000010: 2420 eebd 1afc b23d d049 f0bd acc4 ba3c
00000020: 2aba 353b c750 5a3d edef 023c eaea 1e3d
00000030: cc3d 8e3e 8493 1abd ead8 e93d e79c 96bd

last.1.running_var f4 [16]
2.217106 4.052271 0.90809214 4.0599575 2.2078826 2.5452836 3.1450968 7.4878626
1.3349208 2.1149333 2.7733848 2.590481 4.9942636 1.0992965 5.04084 3.594117
00000000: 11e5 0d40 34ac 8140 ba78 683f 2ceb 8140
00000010: f34d 0d40 ede5 2240 4449 4940 929c ef40
00000020: afde aa3f 115b 0740 237f 3140 71ca 2540
00000030: 02d1 9f40 bfb5 8c3f 904e a140 0306 6640

last.2.weight f4 [1, 16, 1, 1]
-0.12658009 0.04459631 -0.0011022993 0.07023075 0.07802245 0.20288122 0.016968459 -0.18259369
-0.0018446489 0.0010155109 0.032833327 0.00020054355 0.20055062 0.013937761 -0.14275211 0.024048252
00000000: 369e 01be 9faa 363d 077b 90ba 24d5 8f3d
00000010: 3cca 9f3d 18c0 4f3e 7001 8b3c d7f9 3abe
00000020: 25c8 f1ba e41a 853a 3d7c 063d 0049 5239
00000030: 245d 4d3e 355b 643c 9c2d 12be d700 c53c
