weights/DPF_rec.pt (torch_old, 285889 bytes, 64 tensors)

features.0.weight f4 [16, 2, 3, 3]
0	0x3eae669a	0.34062654
1	0x3e7400bd	0.23828407
2	0x3e492716	0.19643816
3	0xbd0b9b13	-0.034083437
4	0xbdacc3ad	-0.0843576
5	0x3ccd33a9	0.025049048
6	0x3ceef10a	0.02916767
7	0x3df855d7	0.12125748
8	0x3b3657b7	0.0027823278
9	0xbd95f8ad	-0.07322822
10	0x3e8e800e	0.27832073
11	0xbdce71d2	-0.10080303
12	0xbda4ad6c	-0.0804089
13	0xbd65d46e	-0.05611079
14	0x3c1f57c5	0.009725516
15	0xbbe8ed5f	-0.007108375
16	0xbe6fa3ac	-0.2340228
17	0xbe29580e	-0.16537496
18	0xbe91cf5a	-0.2847851
19	0xbe4a7537	-0.19771276
20	0x3d7facb5	0.062420566
21	0x3e772d46	0.24138364
22	0x3da8d391	0.08243478
23	0x3caef1ba	0.021355499
24	0xbc29f7e4	-0.010374043
25	0x3e3f034e	0.18653604
26	0xbe44f499	-0.19233932
27	0xbdca6134	-0.09881821
28	0x3e32aa06	0.17447671
29	0x3e861b7e	0.2619285
30	0xbe6a6d05	-0.2289315
31	0xbd8f7f25	-0.07006673
32	0xbc84b924	-0.016201563
33	0x3dd63b45	0.104605235
34	0x3aef7bf4	0.0018271194
35	0xbda196f3	-0.078901194
36	0xbda4965e	-0.08036493
37	0x3e492eb0	0.19646716
38	0x3da7bd36	0.08190386
39	0x3cdaac1f	0.026693402
40	0xbe5ea854	-0.217439
41	0xbd18e0e4	-0.037323847
42	0x3d2bb8ae	0.04192417
43	0xbdf16c4f	-0.11788236
44	0xbe3a4696	-0.18190989
45	0xbe2bd761	-0.1678138
46	0xbea9685a	-0.33087426
47	0xbe118acb	-0.14213102
48	0x3e37683b	0.17910855
49	0x3cded390	0.02720049
50	0x3e6e1c52	0.23252991
51	0xbd996c5a	-0.074913695
52	0x3e35dab0	0.17759204
53	0x3de7db21	0.113210924
54	0x3e7c512e	0.24640343
55	0xbc6d9afa	-0.014502281
56	0xbe71f101	-0.23627092
57	0x3eadd49d	0.33951274
58	0x3cdada60	0.026715457
59	0xbcbcad7a	-0.023031939
60	0x3db0cad1	0.08632434
61	0x3ddc3720	0.10752702
62	0xbe4b5cb1	-0.19859578
63	0x3dd389c9	0.10329015
64	0x3dca770a	0.09885986
65	0x3d8b0ee9	0.06789953
66	0x3ea2c3a1	0.31789878
67	0x3e35d50a	0.17757049
68	0xbe5ccaa4	-0.21561676
69	0xbe0ffb74	-0.14060766
70	0x3df44a27	0.11928206
71	0x3d58b670	0.05290836
72	0x3e438c79	0.19096555
73	0x3da740f3	0.08166685
74	0xbe9aa097	-0.30200645
75	0x3b902be4	0.0043997634
76	0x3e32489f	0.17410515
77	0xbde7d4e8	-0.113199055
78	0x3dbd57d0	0.092452645
79	0x3d86dd7b	0.06585213
80	0x3e8f787d	0.28021613
81	0x3e47dc72	0.19517687
82	0xbe2fef34	-0.17181093
83	0xbe37de13	-0.17955808
84	0x3c5a8b3c	0.01333886
85	0x3e13d742	0.14437583
86	0xbea5f19d	-0.324109
87	0xbe0eb6f0	-0.13936973
88	0x3d0b948c	0.034077212
89	0xbdbb2b79	-0.09139151
90	0xbe931306	-0.2872545
91	0xbe43e2b6	-0.19129452
92	0xbdfbf9bb	-0.12303492
93	0xbda19070	-0.078888774
94	0x3de8da88	0.113698065
95	0x3e2c05d0	0.16799092
96	0xbe21154a	-0.15730777
97	0x3dac2302	0.08405115
98	0x3d21157f	0.03932714
99	0xbd8883bc	-0.06665751
100	0x3ca77371	0.020440789
101	0x3e44d8d6	0.19223341
102	0x3e63a795	0.22231896
103	0x3d9baf3f	0.07601785
104	0x3e9514ad	0.29117337
105	0xbe3c0b67	-0.18363725
106	0xbdc2ccd2	-0.095117226
107	0xbe25ba72	-0.16184404
108	0xbb8deca7	-0.0043311897
109	0x3d63b3fc	0.05559157
110	0xbd69e60c	-0.057104155
111	0xbcc371b7	-0.023857934
112	0xbe480b7c	-0.19535631
113	0x3e07f8cf	0.13278507
114	0x3dcf6e0d	0.101284124
115	0x3d6c293d	0.057656515
116	0x3c44e1da	0.012016738
117	0xbe3033c7	-0.17207251
118	0xbe9840d8	-0.29736972
119	0xbe2a3a6d	-0.1662385
120	0xbe099648	-0.13436234
121	0xbeab5f5b	-0.33471188
122	0xbbaca328	-0.005268473
123	0x3e5ec28f	0.21753906
124	0xbd6a4085	-0.057190437
125	0x3dc71627	0.09721022
126	0x3dfccb95	0.12343518
127	0xbe2b30ae	-0.16717789
128	0xbdfc7ecf	-0.12328874
129	0x3da5ec80	0.081017494
130	0x3e10cae0	0.1413989
131	0xbd924aa6	-0.07143144
132	0xbe2c4d67	-0.16826402
133	0xbe84846e	-0.25882286
134	0xbdfa7ab5	-0.12230436
135	0xbd98dc7a	-0.074639276
136	0xbe7d5315	-0.24738725
137	0xbe943802	-0.2894898
138	0x3e36aee1	0.17840149
139	0x3e2a2210	0.16614556
140	0x3e27d368	0.16389239
141	0x3bf5aad2	0.00749717
142	0x3e111a5e	0.14170215
143	0xbde39dd7	-0.1111409
144	0x3e88c508	0.26712823
145	0x3ea540dc	0.32276046
146	0x3da18d90	0.07888329
147	0xbe0eba38	-0.13938224
148	0xbe063362	-0.13105538
149	0x3b97ae79	0.004628953
150	0x3e0ba385	0.13636597
151	0xbd55e4d7	-0.05222019
152	0xbe04633a	-0.12928477
153	0x3e150a02	0.14554599
154	0x3dd90db0	0.10598314
155	0x3d5424df	0.051792976
156	0x3c409cdd	0.011756149
157	0xbd2ea437	-0.042637076
158	0xbcaadad6	-0.020856302
159	0xbe83e6b0	-0.25761938
160	0xbd818b1e	-0.063253626
161	0xbd985114	-0.074373394
162	0xbe0802d9	-0.13282336
163	0x3e546c13	0.20744352
164	0x3e19edc0	0.150321
165	0xbe181ad4	-0.14853984
166	0xbe080498	-0.13283002
167	0xbe1f492b	-0.15555255
168	0xbc74ada1	-0.0149339745
169	0xbe01938c	-0.12653941
170	0x3dc4add5	0.09603468
171	0xbce326bb	-0.027728429
172	0xbde7c3b9	-0.11316628
173	0xbea2ac70	-0.31772184
174	0xbe94c56e	-0.29056877
175	0x3da976af	0.0827459
176	0xbea4a827	-0.3215954
177	0x3c057589	0.008145698
178	0x3e502750	0.20327497
179	0x3da21f78	0.079161584
180	0xbed29165	-0.41126552
181	0xbe3ab04a	-0.18231311
182	0xbeb1ea90	-0.3474927
183	0xbe529de6	-0.20568046
184	0xbe8bcab7	-0.27303097
185	0x3e2bf192	0.1679137
186	0x3cefcb7f	0.02927184
187	0xbe581124	-0.21100289
188	0xbd18c44f	-0.03729659
189	0x3df0e224	0.11761883
190	0x3e01b2d3	0.12665872
191	0x3c225346	0.009907549
192	0x3e2602e8	0.16212046
193	0x3cc84465	0.024446676
194	0xbdd9650a	-0.10614975
195	0xbd879c13	-0.06621566
196	0x3e529a4d	0.20566674
197	0xbaf5d256	-0.0018754702
198	0xbd4449e6	-0.047922038
199	0x3ebe1799	0.3712738
200	0x3eb021fd	0.3440093
201	0xbe677063	-0.22601466
202	0xbe278a4f	-0.16361354
203	0xbe05661a	-0.1302723
204	0xbe72a5d2	-0.23696068
205	0x3d3be08e	0.04586845
206	0x3e3e96c9	0.18612207
207	0xbde77ba2	-0.11302878
208	0x3e48e10e	0.19617102
209	0xbe0327f3	-0.12808208
210	0xbe9c9863	-0.30585012
211	0xbd42b0a3	-0.047531735
212	0x3e2bd4da	0.16780415
213	0x3dc15c10	0.09441388
214	0x3dd099be	0.10185574
215	0xbe380818	-0.17971838
216	0xbdd757c7	-0.10514789
217	0x3e0cd043	0.1375132
218	0x3d4603a1	0.048343305
219	0xbdba8462	-0.09107281
220	0xbdf6fb00	-0.12059593
221	0xbdd3f545	-0.10349516
222	0x3d8667bd	0.06562755
223	0x3ea876ff	0.32903287
224	0xbcc5bef1	-0.0241389
225	0xbe56c752	-0.20974472
226	0xbeaf2f6c	-0.34215868
227	0xbe92af28	-0.2864926
228	0xbd83419a	-0.06408997
229	0xbe34cd63	-0.17656474
230	0xbe8c8d4d	-0.27451554
231	0x3e4a6456	0.19764838
232	0xbda8bff0	-0.08239734
233	0xbe85636a	-0.2605241
234	0x3d9d6c4f	0.07686674
235	0xbdb80db6	-0.0898699
236	0xbdd8afc2	-0.10580398
237	0x3d61fc65	0.055172343
238	0x3e568a7e	0.20951268
239	0x3cddd276	0.027077895
240	0xbd627ef7	-0.055296864
241	0x3e0ea24b	0.13929097
242	0x3dab2b7c	0.08357903
243	0xbced9ada	-0.029004503
244	0x3cee1ff7	0.029067976
245	0x3dd5b1cf	0.10434305
246	0x3d17b07d	0.037033547
247	0x3e1eff5a	0.15527096
248	0x3d40d295	0.047075827
249	0x3cf52058	0.02992265
250	0x3e602b97	0.21891628
251	0x3eba93c8	0.36440873
252	0xbe1c75cb	-0.1527931
253	0x3df53b20	0.11974168
254	0xbdb77402	-0.089576736
255	0xbcc6ef4a	-0.024284024

features.0.bias f4 [16]
0	0xbe1eaf22	-0.15496495
1	0xbda8156e	-0.082072124
2	0x3e63720b	0.22211473
3	0xbe8c3a87	-0.27388403
4	0x3e3c6df4	0.18401319
5	0xbe29e87e	-0.16592595
6	0xbecc7481	-0.39932635
7	0xbeb2226f	-0.34791896
8	0x3d6f12c1	0.058367494
9	0x3d9078f6	0.070543215
10	0xbe24af79	-0.16082563
11	0x3e1006d4	0.14065105
12	0x3d793436	0.060840808
13	0xbe348306	-0.17628106
14	0x3d4cd0f8	0.050003976
15	0xbc30da15	-0.010794182

features.2.weight f4 [16]
0	0x3f7bfc62	0.9843198
1	0x3f96d6b5	1.1784273
2	0x3f7a2d4a	0.97725356
3	0x3f76d727	0.96422046
4	0x3f552554	0.83260083
5	0x3f747f79	0.9550701
6	0x3f951666	1.164746
7	0x3f813b32	1.009619
8	0x3f809412	1.0045187
9	0x3f6c5172	0.92311776
10	0x3f61f09a	0.88257754
11	0x3f6af272	0.9177619
12	0x3f8452b1	1.0337735
13	0x3f640023	0.8906271
14	0x3f87f27f	1.0620879
15	0x3f73a854	0.95178723

features.2.bias f4 [16]
0	0x3e0e028f	0.13868164
1	0x3d934f46	0.071928546
2	0xbdb34604	-0.08753589
3	0x3e73e882	0.23819163
4	0x3e1bd62b	0.15218417
5	0x3db8aff9	0.09017939
6	0xbdf58010	-0.119873166
7	0x3d275d29	0.04086033
8	0x3e40b25d	0.1881804
9	0xbde233c9	-0.110450335
10	0x3dbb9abc	0.091603726
11	0xbd983cd8	-0.0743348
12	0xbd22dfba	-0.039764144
13	0x3c0737e5	0.008253072
14	0x3c5b28ea	0.013376454
15	0xbc115900	-0.008871317

features.2.running_mean f4 [16]
0	0xbdbcd5c2	-0.092204586
1	0xbdafd15e	-0.085848555
2	0x3e44c885	0.19217117
3	0xbe14e3ce	-0.14540026
4	0x3e3c3aad	0.18381758
5	0xbe2e9ec8	-0.17052758
6	0xbef8c1e5	-0.4858543
7	0xbed467bc	-0.41485393
8	0x3dcaa0fa	0.09893985
9	0xbd27c584	-0.04095985
10	0xbe8fc692	-0.28081185
11	0x3e10438e	0.1408827
12	0xbdcc7216	-0.09982698
13	0x3b7b0cdb	0.0038307223
14	0x3e05f074	0.13080007
15	0x3dc3632a	0.095403984

features.2.running_var f4 [16]
0	0x3c1cc73f	0.009568988
1	0x3920cc27	0.00015334842
2	0x3ab0b7d0	0.0013482515
3	0x3ca43ee1	0.020049514
4	0x3ace51bb	0.001574091
5	0x3ae2d31c	0.0017305347
6	0x3bf41e62	0.007449911
7	0x3aec17dc	0.0018012482
8	0x3c1fa328	0.009743489
9	0x3bff8305	0.007797601
10	0x3c0c1c65	0.008551692
11	0x3b8ee1ff	0.004360437
12	0x3c67d5b1	0.014150069
13	0x3d00a672	0.031408735
14	0x3beb6ef5	0.007184858
15	0x3c5e69f8	0.01357507

features.3.weight f4 [32, 16, 3, 3]
0	0xbe8bea14	-0.27327025
1	0xbe8c3301	-0.27382663
2	0xbe5cae44	-0.21550852
3	0x3d5a0a49	0.053232465
4	0x3cdaf164	0.026726432
5	0xbd8d9afb	-0.06914326
6	0x3dcd2af8	0.10017961
7	0x3e501e32	0.20324019
8	0x3d665539	0.05623362
9	0x3e2e112e	0.16998741
10	0x3da1fe5d	0.07909844
11	0x3e17f294	0.1483863
12	0x3b3bcbfe	0.0028655524
13	0xbc64236d	-0.013924462
14	0x3d9dcb53	0.07704797
15	0xbe029a6b	-0.12754218
16	0xbdcef324	-0.10104969
17	0xbe6a661f	-0.22890519
18	0x3e51b05d	0.20477434
19	0x3e14c4ed	0.14528246
20	0xbc269dd5	-0.010169466
21	0xbe3ffe62	-0.18749383
22	0xbe4e6e87	-0.2015935
23	0xbd56afb3	-0.052413654
24	0xbe139020	-0.14410448
25	0xbd590e0e	-0.05299192
26	0x3ce43258	0.027856037
27	0x3cd32825	0.025775978
28	0xbd8d5869	-0.069016285
29	0x3bb0e4e7	0.005398381
30	0x3d84562d	0.06461749
31	0x3d9feef0	0.078092456
32	0xbb22b3b3	-0.0024826347
33	0x3d69af7e	0.057052128
34	0xbdafc5df	-0.08582663
35	0xbc55f979	-0.013059967
36	0x3c2cd241	0.010548175
37	0xbc46bf83	-0.012130621
38	0xbc4c30c9	-0.012462803
39	0x3c14884f	0.009065702
40	0x3d5033e5	0.05083074
41	0x3dc9741b	0.098365985
42	0x3bd31a38	0.0064423345
43	0xbc7abe34	-0.015304137
44	0x3cfca922	0.030842368
45	0x3e29934d	0.16560097
46	0x3d71d3af	0.059039768
47	0x3d38a099	0.045075033
48	0x3de23511	0.11045278
49	0xbcc90840	-0.024540067
50	0x3c7cd30b	0.015431176
51	0xbd13febc	-0.036131606
52	0xbbb94a9b	-0.0056546456
53	0x3cc74b99	0.02432804
54	0x3dbe3457	0.09287327
55	0x3dbd5e15	0.0924646
56	0x3cd05fe5	0.025436351
57	0xbdb81cd3	-0.08989873
58	0xbcde78b8	-0.027157173
59	0xbd38993d	-0.045068014
60	0xbd0e1a3f	-0.034693
61	0x3c4222a6	0.011849081
62	0x3dde27dc	0.10847446
63	0x3e4c2df9	0.19939412
64	0x3dbc9511	0.0920812
65	0x3cc1fba7	0.023679568
66	0xbde8822b	-0.113529526
67	0x3bdae145	0.0066796863
68	0x3d283cf6	0.041073762
69	0xbd987bc2	-0.0744548
70	0x3d063fe1	0.032775763
71	0x3c84fe25	0.016234467
72	0xbe388428	-0.18019164
73	0xbe4a04f1	-0.19728447
74	0xbe03fb2f	-0.12888788
75	0xbb21a09b	-0.0024662379
76	0xbbd88095	-0.006607125
77	0xbca54f32	-0.020179365
78	0x3e08951a	0.13338128
79	0x3e49862c	0.19680089
80	0x3e4ec918	0.20193899
81	0xbd657b55	-0.05602582
82	0x3cf415ca	0.029795546
83	0x3d689b55	0.05678876
84	0xbd19f5a9	-0.037587795
85	0xbe0ab30d	-0.13544865
86	0xbd708938	-0.058724612
87	0x3d702dd5	0.05863746
88	0x3da29cb4	0.07940045
89	0x3d2540a5	0.040344853
90	0x3e118753	0.14211778
91	0x3e1fad1d	0.15593381
92	0x3e154bf5	0.14579757
93	0xbc4271ac	-0.011867922
94	0xbd058098	-0.03259334
95	0x3cbabd14	0.022795238
96	0xbbf626e9	-0.0075119627
97	0xbda6b39c	-0.081397265
98	0x3dbbe868	0.09175187
99	0xbc50e249	-0.012749263
100	0xbd94da5f	-0.072682135
101	0xbe287e94	-0.16454536
102	0xbcbe5807	-0.023235334
103	0xbdfa34f1	-0.12217129
104	0xbe3f4f8e	-0.18682691
105	0x3dc32847	0.09529167
106	0x3dc5b508	0.096536696
107	0xbba0b30e	-0.0049041575
108	0xbd1fe316	-0.039034925
109	0x3e003676	0.12520775
110	0x3e069e0b	0.13146226
111	0xbcb4ba22	-0.022061411
112	0x3d9414fb	0.07230564
113	0x3d3b0b96	0.045665346
114	0x3daff739	0.08592076
115	0x3bdb8575	0.006699259
116	0x3d872349	0.06598527
117	0x3bc511a4	0.006014066
118	0x3ce42aa5	0.027852366
119	0xbdd26896	-0.102738544
120	0x3dcee28e	0.101018056
121	0x3ca189e0	0.019719064
122	0x3c424617	0.011857531
123	0x3cf546cf	0.02994099
124	0x390d74e2	0.0001349035
125	0xbdb45634	-0.088055044
126	0x3e4a59d4	0.19760829
127	0x3e0d60ea	0.13806501
128	0x3c84e617	0.016222997
129	0xbcc8026e	-0.024415221
130	0xbd75012d	-0.059815574
131	0xbcfdf816	-0.031002086
132	0xbe1861c0	-0.14881039
133	0xbd51725a	-0.051134445
134	0xbdfa60a3	-0.12225463
135	0x3b267557	0.002539953
136	0xbcc98e9a	-0.02460413
137	0x3cd3d5d5	0.025858799
138	0xbd9840bd	-0.07434223
139	0xbd32a287	-0.04361203
140	0xbdb86d53	-0.09005227
141	0xbe3fb10f	-0.18719886
142	0xbde96dbe	-0.11397885
143	0xbca21130	-0.019783586
144	0xbbf55b0c	-0.0074876603
145	0xbdbb3d87	-0.09142595
146	0xbdb129ab	-0.08650526
147	0x3dc0728e	0.093968496
148	0x3cde47c8	0.027133837
149	0xbd85ea46	-0.06538825
150	0x3e3eaff8	0.18621814
151	0x3deafcf1	0.11474026
152	0x3d5bc2e0	0.053652644
153	0x3df73f0a	0.120725706
154	0x3db09b90	0.08623421
155	0x3dbb3cea	0.09142478
156	0x3d15789d	0.03649198
157	0xbdbfa162	-0.09356953
158	0xbd8633b8	-0.06552833
159	0xbdf85bf9	-0.121269174
160	0x3e0231a0	0.12714243
161	0x3c920b66	0.0178277
162	0xbad08056	-0.0015907388
163	0xbd9aa2e7	-0.075506024
164	0xbe22930f	-0.15876411
165	0xbd750589	-0.05981973
166	0x3dbb00b4	0.091309935
167	0x3d681787	0.056663062
168	0xbe3c4bb6	-0.18388256
169	0xbdc61a75	-0.09673015
170	0x3c40785f	0.011747449
171	0x3d7a0b87	0.06104615
172	0xbd9fb3a7	-0.07797938
173	0x3d22794a	0.03966645
174	0x3dd3d2f2	0.10342969
175	0x3b15b9cd	0.0022846342
176	0x3d950a3b	0.07277342
177	0x3e0d234a	0.13782993
178	0xbd4e09c0	-0.050302267
179	0x3e045879	0.12924375
180	0x3db33485	0.08750252
181	0x3d4131ab	0.047166508
182	0x3e269c88	0.1627065
183	0x3e750652	0.23928192
184	0xbcef595c	-0.029217415
185	0xbd256874	-0.040382817
186	0x3ccc53db	0.02494233
187	0xbc4d9565	-0.012547825
188	0xbdbd26b4	-0.09235898
189	0x3d8bddc9	0.068294115
190	0x3e60ddf3	0.21959667
191	0x3dad1d38	0.08452839
192	0xbd916b74	-0.07100573
193	0x3cb13b3c	0.02163469
194	0xbd957003	-0.07296755
195	0xbd3e3e15	-0.046445925
196	0x3ddf78b3	0.109116934
197	0x3d943ad0	0.0723778
198	0x3cc57993	0.024105823
199	0xbc805e78	-0.015670046
200	0x3c2d12f5	0.010563602
201	0x3cb0e97e	0.021595713
202	0x3d673f97	0.05645713
203	0xbc92a93b	-0.017902961
204	0xbdfcb24e	-0.123386964
205	0xbd84fd7d	-0.064936616
206	0xbd239b02	-0.03994275
207	0x3ca77adf	0.020444332
208	0x3c987686	0.018611204
209	0x3e020069	0.12695469
210	0x3d983548	0.074320376
211	0x3dac4356	0.08411281
212	0x3e1b11c2	0.15143493
213	0x3d4f7642	0.05064989
214	0xbe10f00d	-0.14154072
215	0xbc9f94df	-0.019480167
216	0x3d6735c5	0.056447763
217	0x3cb02e5f	0.021506486
218	0x3d13717e	0.035996906
219	0xbd039f82	-0.03213454
220	0x3d0484f6	0.032353364
221	0x3ca5a03f	0.020218013
222	0x3daacb85	0.083395995
223	0x3e4b5932	0.19858244
224	0x3e5f0358	0.2177862
225	0x3b79e5dc	0.0038131392
226	0x3e25fe1e	0.1621022
227	0x3e57824a	0.21045795
228	0xbdd92586	-0.1060286
229	0xbc36a937	-0.011148742
230	0xbe4783a1	-0.19483806
231	0x3c0cd273	0.008595097
232	0x3e3aa4d2	0.18226936
233	0x3dd4ea1a	0.10396214
234	0x3dc0050d	0.09375963
235	0x3d2a0a15	0.04151352
236	0x3da3137b	0.079627
237	0xbd54de80	-0.051970005
238	0x3d77e793	0.06052358
239	0xbd69b54b	-0.05705766
240	0xbe320da8	-0.17388022
241	0xbd055d1a	-0.03255949
242	0xbdfde2f3	-0.12396803
243	0xbda0b323	-0.078466676
244	0x3e2818b5	0.16415675
245	0x3d7ef1fa	0.062242486
246	0xbe64fca8	-0.22362006
247	0x3d0f578c	0.0349956
248	0xbe2ee0f7	-0.17078005
249	0x3db04157	0.086062126
250	0x3e4c0321	0.19923069
251	0x3e2efcdc	0.17088646
252	0x3da53067	0.08065873
253	0x3c882d30	0.01662311
254	0x3e0dc0da	0.13843098
255	0xbc88669b	-0.016650489

features.3.bias f4 [32]
0	0x3d71c2e5	0.059023757
1	0xbd6118ab	-0.054955166
2	0x3c230cc7	0.009951777
3	0x3d7ff134	0.06248589
4	0x3d3b3129	0.04570118
5	0x3d1990ac	0.037491485
6	0x3d8c0760	0.06837344
7	0x3d17795c	0.03698097
8	0x3cf548ea	0.029941995
9	0xbd8fdf73	-0.070250414
10	0xbda6cb02	-0.081441894
11	0xbcb8aa22	-0.022542063
12	0x3bc40a71	0.00598269
13	0xbd360416	-0.04443749
14	0x3c291326	0.010319507
15	0x3d8c006e	0.068360195
16	0x3d072612	0.03299529
17	0xbd024a5d	-0.0318092
18	0x3c828b5f	0.015935598
19	0x3dc36977	0.095416
20	0xbbeaf20d	-0.007169968
21	0xbe1e2466	-0.15443572
22	0x3d0594b2	0.03261251
23	0x3c9680b2	0.018371914
24	0x3de90d9b	0.11379548
25	0xbd931880	-0.071824074
26	0x3d51f8d0	0.051262677
27	0x3d1b12e9	0.03785983
28	0xbd3381e5	-0.04382505
29	0xbc521b60	-0.0128239095
30	0xbd7da840	-0.061928034
31	0x3d92b0f5	0.07162658

features.5.weight f4 [32]
0	0x3f911a94	1.1336236
1	0x3f779177	0.96706337
2	0x3f73eac6	0.9528011
3	0x3f7a9ed0	0.9789858
4	0x3f6e78a8	0.93152857
5	0x3f661560	0.89876366
6	0x3f8199f0	1.0125103
7	0x3f5d12ca	0.86356795
8	0x3f8d5548	1.1041651
9	0x3f7bd60f	0.983735
10	0x3f95c454	1.170054
11	0x3f7fe685	0.9996112
12	0x3f7d4929	0.9893976
13	0x3f7beefc	0.98411536
14	0x3f86ec82	1.0540926
15	0x3f63f116	0.8903974
16	0x3f83128a	1.0240033
17	0x3f803f87	1.0019387
18	0x3f86bb7f	1.0525969
19	0x3f844894	1.0334649
20	0x3f690de1	0.910368
21	0x3f86d333	1.0533203
22	0x3f833c93	1.0252861
23	0x3f69b501	0.91291815
24	0x3f80711a	1.0034516
25	0x3f78db62	0.9720975
26	0x3f4dc170	0.8037329
27	0x3f7fbfae	0.99901855
28	0x3f5d5b7a	0.8646771
29	0x3f933b9e	1.1502569
30	0x3f6f4442	0.9346353
31	0x3f83292a	1.0246937

features.5.bias f4 [32]
0	0xbd2cc1f0	-0.04217714
1	0x3d4ce38f	0.050021704
2	0x3dab5406	0.083656356
3	0x3d17806e	0.036987714
4	0xbdbac0ec	-0.09118828
5	0x3e25b3d8	0.16181886
6	0x3df49ce6	0.119439885
7	0xbc240d87	-0.010012991
8	0xbe64cbdd	-0.22343393
9	0xbe055f38	-0.13024604
10	0xbd983c3f	-0.07433366
11	0x3d7ba508	0.061436683
12	0x3dc61b80	0.09673214
13	0xbddad41f	-0.1068499
14	0x3e0144d0	0.12623906
15	0xbd2f2543	-0.042760145
16	0x3dd6d287	0.10489374
17	0xbb5cf665	-0.0033716199
18	0xbe0e3821	-0.13888599
19	0x3e6ebf13	0.23315077
20	0x3db564d2	0.088571206
21	0xbc03f83d	-0.00805479
22	0xbd68e30b	-0.05685715
23	0x3e2fd62f	0.17171548
24	0x3e4fe001	0.20300294
25	0x3db7eff0	0.08981311
26	0x3d4c0d68	0.049817473
27	0xbe96ecee	-0.29477638
28	0xbdd42979	-0.10359473
29	0x3cc26b62	0.023732845
30	0x3d5a8eb3	0.053358745
31	0x3e2ab778	0.1667155

features.5.running_mean f4 [32]
0	0x3f780579	0.9688335
1	0x3f664d1e	0.8996142
2	0x3e75badf	0.23997067
3	0x3ec3c13c	0.38233364
4	0x3ef8db41	0.48604777
5	0x3ec6e36f	0.38845393
6	0x3f68e4ab	0.9097392
7	0x3f434b42	0.7628671
8	0x3edf30c9	0.43591908
9	0x3f7bfa1d	0.9842852
10	0x3f6dca23	0.9288656
11	0xbdb4f624	-0.0883601
12	0x3f0c896d	0.54897195
13	0x3f4fb88e	0.81140983
14	0x3ed866b9	0.4226587
15	0x3f2b3e03	0.668915
16	0x3eb553dc	0.35415542
17	0x3e72bc4d	0.23704644
18	0x3f23942a	0.63897955
19	0x3eb8c32a	0.36086398
20	0x3e3eebbf	0.18644617
21	0x3dc4672e	0.095899925
22	0x3f1d2dc4	0.6139796
23	0x3f41ad00	0.756546
24	0x3f356d8e	0.7087029
25	0x3e1e7923	0.15475897
26	0x3f449962	0.76796544
27	0x3eb9b206	0.36268634
28	0x3e71af52	0.23602036
29	0x3ee2e1dc	0.44312942
30	0x3f6e0166	0.92970884
31	0x3f00e983	0.5035631

features.5.running_var f4 [32]
0	0x40804ea6	4.0096006
1	0x41c3dd08	24.482925
2	0x4061da11	3.5289347
3	0x4083eca8	4.1226387
4	0x40416111	3.0215495
5	0x412bcbb3	10.737231
6	0x3fff1a5b	1.9929918
7	0x403229e7	2.7838075
8	0x40481ff3	3.12695
9	0x413699ca	11.412546
10	0x40dff3a4	6.9984913
11	0x409b34a7	4.8501773
12	0x41bc962a	23.573322
13	0x409f6507	4.9810824
14	0x413b8677	11.720328
15	0x41761f39	15.382623
16	0x41091624	8.567905
17	0x4139ec50	11.6201935
18	0x407a9163	3.9151237
19	0x3fe933eb	1.8218969
20	0x40159216	2.3370414
21	0x402b0c50	2.6726265
22	0x405deea2	3.46769
23	0x41a50520	20.627502
24	0x4058506f	3.3799093
25	0x4043e695	3.0609486
26	0x41b0265d	22.018732
27	0x410ae402	8.680666
28	0x40fa2cde	7.817977
29	0x418429f2	16.520481
30	0x417380bf	15.218932
31	0x4018d448	2.3879566

features.6.weight f4 [32, 32, 3, 3]
0	0x3a3060d5	0.0006728296
1	0x3d18d4d6	0.03731235
2	0x3d19d2f2	0.03755469
3	0xbd1efbff	-0.03881454
4	0xbe294626	-0.16530666
5	0xbe0183d2	-0.12647942
6	0x3d1513ff	0.036396023
7	0xbd9f674a	-0.07783373
8	0xbd3c8801	-0.04602814
9	0xbd0b6347	-0.034030225
10	0x3d4768e2	0.04868401
11	0x3dba6eab	0.091031395
12	0xbdc5e60b	-0.09663018
13	0xbda8d574	-0.08243838
14	0xbe82089d	-0.25397196
15	0xbbc1c2e8	-0.005913127
16	0xbc9af9fd	-0.018918032
17	0xbddb8642	-0.10718967
18	0x3db0ad24	0.08626774
19	0x3e27a1b2	0.16370276
20	0xbcc3edda	-0.023917127
21	0xbd84a151	-0.06476081
22	0xbdaf14bd	-0.085488774
23	0xbe621047	-0.22076522
24	0xbd915eff	-0.07098197
25	0xbdd766ac	-0.1051763
26	0xbd51a118	-0.05117902
27	0x3d468084	0.048462406
28	0x3ba87b4a	0.0051416503
29	0x3c09e3f9	0.008416169
30	0x3c246081	0.010032774
31	0xbd0fbbfe	-0.035091393
32	0xbd9b5184	-0.07583907
33	0x3d312054	0.04324372
34	0x3d7d0a6d	0.06177752
35	0x3ce160ab	0.027511915
36	0xbc5c48d5	-0.013445099
37	0xbc916c83	-0.017751938
38	0xbe4430dc	-0.19159263
39	0xbd3c1311	-0.04591662
40	0xbda90482	-0.08252813
41	0xbdf5af70	-0.11996353
42	0x3dce5e95	0.10076634
43	0x3d913798	0.07090682
44	0xbe0dc857	-0.13845955
45	0xbce7e1fb	-0.028305998
46	0x3d9c1513	0.07621207
47	0xbd16b285	-0.036791343
48	0xbe1dd527	-0.15413342
49	0xbdb5cdbb	-0.088771306
50	0xbe39eb94	-0.18156272
51	0xbc85382c	-0.016262136
52	0xbcccaf12	-0.024985824
53	0xbdb963f4	-0.09052268
54	0x3be9a30b	0.007130032
55	0xbd91f67b	-0.071270905
56	0xbc3459eb	-0.011007766
57	0xbcb5a71d	-0.022174412
58	0xbd4ef9f2	-0.050531335
59	0xbd26ae80	-0.04069376
60	0x3d373ab6	0.044733725
61	0xbe2db250	-0.16962552
62	0xbe69c270	-0.22828078
63	0x3c1407ea	0.00903509
64	0xbcc8f1e1	-0.0245294
65	0x3dbc0990	0.091815114
66	0xbd1a01ca	-0.037599362
67	0xbe72a222	-0.23694661
68	0xbddaaed2	-0.106778756
69	0xbcce594b	-0.025189063
70	0xbe64a78d	-0.2232954
71	0xbd2c6266	-0.042086028
72	0x3d0ef046	0.03489711
73	0x3c1b88fc	0.009493109
74	0xbd8f0d17	-0.069849186
75	0x3decff7a	0.11572166
76	0x3d4eda02	0.050500877
77	0x3d36994a	0.04457978
78	0x3dc1fa62	0.09471585
79	0xbcd1fde3	-0.025633758
80	0xbcfc2b23	-0.030782288
81	0x3d892e91	0.06698335
82	0x3cba34f0	0.02273032
83	0x3c75b919	0.014997744
84	0x3ba365c9	0.004986499
85	0x3d2510a0	0.040299058
86	0xbdf79c7a	-0.120903924
87	0x3d0554a9	0.03255144
88	0x3c9382b3	0.018006658
89	0xbdd53184	-0.10409835
90	0x3dcf57f2	0.10124196
91	0xbd461f7b	-0.048369866
92	0x3ddc944a	0.107704714
93	0x3da47cc9	0.080316134
94	0xbd6e4889	-0.058174644
95	0xbdb6c08c	-0.08923444
96	0x3c9fdf54	0.01951567
97	0xbe0b9ebf	-0.13634776
98	0xbdbef9d1	-0.093249924
99	0xbcdc6c2b	-0.026907047
100	0x3d9d482b	0.076797806
101	0x3dc73cf0	0.0972842
102	0x3dc3e805	0.095657386
103	0xbd260f82	-0.040542133
104	0xbdec466c	-0.115368694
105	0x3c76d33d	0.015065012
106	0x3d12f840	0.03588128
107	0xbd01ec21	-0.03171933
108	0xbd576f38	-0.0525963
109	0x3db61671	0.08890999
110	0x3ddd855e	0.108164534
111	0xbddb45ce	-0.107066736
112	0x3c30b5c7	0.010785527
113	0x3ca26dd5	0.019827763
114	0xbdc1972f	-0.09452664
115	0x3cdea6c6	0.027179133
116	0xbe0006a9	-0.1250254
117	0xbd08bc02	-0.033382423
118	0xbdf0d42c	-0.117592186
119	0x3c499678	0.012303941
120	0xbaddcb2e	-0.0016921514
121	0xbc886322	-0.016648833
122	0xbdde9baf	-0.10869538
123	0xbbd10aa7	-0.0063794437
124	0xbd691b26	-0.056910656
125	0xbe3ea35c	-0.18617004
126	0xbe1b0998	-0.15140378
127	0xbbd31612	-0.00644184
128	0x3df14727	0.11781149
129	0xbc27f13d	-0.010250387
130	0x3d585ae4	0.052821055
131	0x3cdaf856	0.026729744
132	0xbe0f65c5	-0.14003666
133	0xbd490a6e	-0.049082212
134	0xbc28a3da	-0.0102929715
135	0x3d5094de	0.05092322
136	0xbd163cf7	-0.036679234
137	0x3d75e47f	0.060032364
138	0xbcd9ca9f	-0.026585875
139	0xbe26309f	-0.16229485
140	0xbe11566b	-0.14193122
141	0x3c3b2c12	0.011424081
142	0xbdc38509	-0.09546859
143	0xbd7a5903	-0.061120044
144	0xbd589a04	-0.052881256
145	0x3ca6a144	0.02034057
146	0x3d9e3243	0.077244304
147	0x3dabd3cb	0.08390006
148	0x3dfbb7ba	0.122909024
149	0xbc4256e3	-0.011861536
150	0xbdd72320	-0.105047464
151	0x3d176d10	0.036969244
152	0xbc52c776	-0.012864938
153	0xbd01d077	-0.03169295
154	0x3e2b2583	0.16713528
155	0x3d4bd2ac	0.04976146
156	0xbde18fae	-0.11013733
157	0x3d4ead42	0.0504582
158	0xbd62aa12	-0.055337973
159	0xbc000bdd	-0.007815328
160	0xbd98d580	-0.07462597
161	0xbddaaa47	-0.10677009
162	0xbe35c1de	-0.17749736
163	0xbad2048d	-0.0016023085
164	0x3e1adace	0.1512253
165	0x3ccd1c58	0.02503793
166	0xbded54cf	-0.115884416
167	0xbc42d827	-0.011892355
168	0x3ab24612	0.0013601205
169	0xbe7cbef3	-0.24682216
170	0x3c92c0a3	0.017914122
171	0x3d8fffce	0.07031213
172	0x3e87edcf	0.2654862
173	0x3cb7aaad	0.022420252
174	0xbde70dfe	-0.11281966
175	0x3d13bdc2	0.03606964
176	0xbe86cd5d	-0.26328555
177	0xbdc4af41	-0.096037395
178	0xbe2c93b8	-0.16853225
179	0xbe1b7878	-0.15182674
180	0xbd89ac7b	-0.06722351
181	0x3ca127d0	0.019672304
182	0x3ddfe6a2	0.109326616
183	0xbdd14178	-0.10217565
184	0xbd0963c4	-0.03354241
185	0xbe65f3b4	-0.22456247
186	0xbe24678c	-0.16055125
187	0xbe37a574	-0.17934209
188	0xbe200613	-0.15627317
189	0x3e5821c0	0.21106625
190	0x3d251894	0.040306643
191	0xbd0f7259	-0.03502116
192	0x3e009162	0.12555459
193	0xbdf2c578	-0.118540704
194	0x3c90c08c	0.017669939
195	0xbd5984f3	-0.053105306
196	0x3d0d22e5	0.034457106
197	0xbd3054a9	-0.04304949
198	0xbb888aa2	-0.004166917
199	0xbcfa2d64	-0.030539222
200	0x3e04540d	0.12922688
201	0x3e29cea1	0.16582729
202	0x3c80f61b	0.015742352
203	0x3d60ad29	0.05485264
204	0x3d828a1f	0.06374001
205	0x3c9c8460	0.01910609
206	0xbdcb39f1	-0.09923161
207	0xbe208418	-0.1567539
208	0xbcf8c2a5	-0.030366251
209	0xbba33723	-0.004980938
210	0xbd8ae9d0	-0.067828774
211	0x3cad3545	0.021143565
212	0x3d907fbb	0.07055613
213	0xbd3969ec	-0.04526703
214	0xbde6cd7e	-0.11269663
215	0xbdef7fee	-0.116943225
216	0xbd12c1f5	-0.035829503
217	0x3c1971ba	0.009365493
218	0x3dccef19	0.10006542
219	0xbdf79f60	-0.12090945
220	0x3d8421fc	0.064517945
221	0x3d057ca4	0.03258957
222	0xbdaf48d9	-0.085588165
223	0xbcd86417	-0.026414914
224	0xbda5ce67	-0.08096009
225	0xba82a8d3	-0.0009968526
226	0xbcc76ab0	-0.024342865
227	0x3e313ebf	0.17309092
228	0x3dc9e3ec	0.09857926
229	0xbd14a3a0	-0.036288857
230	0x3e0fb74b	0.14034764
231	0x3db41c89	0.08794505
232	0x3d1519af	0.036401447
233	0xbcf5d54f	-0.03000894
234	0xbe15d5c5	-0.14632328
235	0xbd39bdf5	-0.045347173
236	0x3dd2ca90	0.10292542
237	0x3c0b9bec	0.008521061
238	0x3da3948a	0.07987316
239	0x3de7a73c	0.11311194
240	0xbe180d05	-0.14848717
241	0xbde35508	-0.11100203
242	0xbdc1ef11	-0.094694264
243	0x3d211eb3	0.039335918
244	0xbe44f6a9	-0.19234718
245	0xbdcaa2f7	-0.09894364
246	0xbd9f3b28	-0.07774955
247	0x3bf0f0cb	0.0073529235
248	0xbcfd1b34	-0.03089676
249	0x3d8365be	0.0641589
250	0xbd8bc95d	-0.068255164
251	0xbdf38e40	-0.118923664
252	0x3cb2d1d2	0.021828566
253	0x3dab0ae9	0.0835169
254	0x3d895f92	0.06707682
255	0x3c6fdcbc	0.0146400295

features.6.bias f4 [32]
0	0x3d648a08	0.0557957
1	0x3c3a87b2	0.011384891
2	0xbd399836	-0.045311175
3	0xbcd17d6f	-0.025572507
4	0xbd2f5749	-0.04280785
5	0xbd3bab26	-0.045817517
6	0xbb90542d	-0.004404566
7	0x3cc0f8f1	0.023556205
8	0xbcb6d1eb	-0.022316894
9	0x3ae198b0	0.0017211642
10	0x3ca7689b	0.020435622
11	0xbd439fd3	-0.047759842
12	0xbce1f02b	-0.027580341
13	0xbcfb0630	-0.030642599
14	0xbcc179fc	-0.023617737
15	0x3d984166	0.07434349
16	0x399edaf8	0.00030299253
17	0x3d67f715	0.05663212
18	0x3c975df5	0.01847742
19	0x3cb92602	0.022601131
20	0xbd2b66b7	-0.041846003
21	0xbcda0db6	-0.026617866
22	0x3bc5873a	0.006028083
23	0xbbf071ce	-0.0073377853
24	0xbd83de1e	-0.0643885
25	0xbd5db12b	-0.05412404
26	0x3d292abd	0.041300524
27	0xbd6d178c	-0.057883784
28	0xbbb498e8	-0.005511392
29	0x3d3762f1	0.044772092
30	0x3db692b8	0.08914703
31	0xbdab1b6a	-0.08354838

features.8.weight f4 [32]
0	0x3f6f9d3b	0.9359929
1	0x3f6a6e3e	0.91574466
2	0x3f8725aa	1.0558369
3	0x3f81ecd2	1.0150397
4	0x3f77f755	0.96861774
5	0x3f69def5	0.9135583
6	0x3f611d8c	0.8793571
7	0x3f9a920d	1.2075821
8	0x3f545218	0.82937765
9	0x3f8d1e09	1.1024791
10	0x3f82d6ff	1.0221862
11	0x3f9844f5	1.1896044
12	0x3f6c00fa	0.9218899
13	0x3f7a5002	0.9777833
14	0x3f85d7cf	1.0456485
15	0x3f870e12	1.0551169
16	0x3f6803e1	0.9063092
17	0x3f83884e	1.0275972
18	0x3f81199f	1.0085944
19	0x3f417154	0.7556355
20	0x3f8636ba	1.0485451
21	0x3f7dd39d	0.9915102
22	0x3f717255	0.9431508
23	0x3f88c3ac	1.0684714
24	0x3f838ac6	1.0276725
25	0x3f85c130	1.0449581
26	0x3f7e185e	0.9925593
27	0x3f60c4af	0.87800115
28	0x3f837944	1.0271382
29	0x3f8569d6	1.0422924
30	0x3f8f4315	1.1192347
31	0x3f7c0b06	0.9845432

features.8.bias f4 [32]
0	0xbcfdd24d	-0.030984068
1	0x3d8ae12c	0.067812294
2	0x3c9f7eeb	0.019469699
3	0x3dbb2f18	0.09139842
4	0x3c2c7718	0.010526441
5	0x3cce8632	0.025210474
6	0xbd089424	-0.033344403
7	0x3de3e721	0.11128069
8	0xbdcc98ce	-0.09990083
9	0xbe3930ae	-0.18084976
10	0x3b072ba7	0.0020625384
11	0x3d1484ca	0.03625945
12	0x3e10918e	0.14118025
13	0x3da32c9f	0.07967495
14	0xbd2f8a5e	-0.042856567
15	0x3d68ff32	0.056884
16	0x3cea2557	0.028582258
17	0x3b128c35	0.0022361402
18	0x3cdbb280	0.026818514
19	0x3d98d484	0.07462409
20	0xbce3aaa1	-0.027791323
21	0x3e0af262	0.13569024
22	0x3d5f2b65	0.054484744
23	0x3d7d8a96	0.061899744
24	0x3dcb1c3b	0.09917494
25	0x3ca57af8	0.020200238
26	0x3e3a8578	0.18214977
27	0xbd8587d6	-0.06520049
28	0xbdd9de42	-0.106380954
29	0xbe686c7f	-0.22697638
30	0x3dadfef6	0.084958956
31	0x3d54bc2d	0.05193727

features.8.running_mean f4 [32]
0	0x3fa4f5a8	1.2887468
1	0x3f943bd4	1.1580758
2	0x400a93fc	2.1652822
3	0x3fc1901f	1.5122107
4	0x3fa4a189	1.2861797
5	0x3f719b1d	0.9437731
6	0x3fcf9c4c	1.6219573
7	0x3f6028f0	0.87562466
8	0x3f5090b6	0.8147081
9	0x3f987b63	1.1912655
10	0x3f856ca7	1.0423783
11	0x4013e823	2.3110435
12	0x3fb9904b	1.449716
13	0x3e86d667	0.2633545
14	0x3f73daa7	0.9525551
15	0x4008c87a	2.137236
16	0x3e83adcd	0.25718537
17	0x3f485d4e	0.7826737
18	0x3fc61fca	1.5478451
19	0x3fcfcd29	1.6234485
20	0x3f8f6ca4	1.120503
21	0x3fcb5f2c	1.5888419
22	0x400c18b5	2.189008
23	0x3f3a5b2a	0.72795355
24	0x40222b63	2.533898
25	0x3f80fef9	1.0077811
26	0x401d1c0d	2.454837
27	0x3fb330c9	1.3999263
28	0x3f758380	0.9590378
29	0x3fdd357d	1.7281948
30	0x40071b60	2.1110458
31	0x3e3e6ea1	0.18596889

features.8.running_var f4 [32]
0	0x4157980a	13.474619
1	0x41823e92	16.280552
2	0x423af63f	46.740475
3	0x42296e80	42.35791
4	0x4234a648	45.162384
5	0x41bbc70b	23.472189
6	0x411f2789	9.947152
7	0x421b4671	38.81879
8	0x4146c4c1	12.423036
9	0x419f4235	19.907328
10	0x4152f4e6	13.18479
11	0x424bd9ee	50.962822
12	0x4184b346	16.587536
13	0x409b3331	4.849999
14	0x40c3e6eb	6.121938
15	0x429b57c3	77.67141
16	0x41d8939b	27.072073
17	0x41213ad0	10.0768585
18	0x417a8626	15.657751
19	0x4205223e	33.28344
20	0x4174e4ff	15.305907
21	0x42738664	60.88124
22	0x4208ea18	34.228607
23	0x413921c1	11.570741
24	0x425ac37d	54.690907
25	0x41b58576	22.690166
26	0x420c562a	35.084145
27	0x41743988	15.264046
28	0x41b3a749	22.456682
29	0x4203f79b	32.991802
30	0x41c89ed6	25.077557
31	0x410a3bb0	8.639572

features.9.weight f4 [32, 32, 3, 3]
0	0xbd2f44bd	-0.042790163
1	0x3cc850b2	0.024452541
2	0x3d8f3b1d	0.06993697
3	0x3db39fb7	0.087706976
4	0x3dbce662	0.092236295
5	0x3cda8b5f	0.026677785
6	0xbd2b449b	-0.041813474
7	0xbb900f9b	-0.0043963916
8	0x3ae70f82	0.0017628523
9	0xbcb26174	-0.021774985
10	0xbce47b5a	-0.02789085
11	0x3d0a2524	0.033726826
12	0x3dccb590	0.09995568
13	0xbd68f8ea	-0.056878008
14	0xbd472abb	-0.048624735
15	0x3e2a202c	0.16613835
16	0x3dcc217f	0.099673264
17	0x3dee7d6f	0.11645018
18	0xbdc57ca7	-0.09642916
19	0xbdb6a469	-0.089180775
20	0x3cc5645d	0.024095709
21	0xbd62054c	-0.055180833
22	0xbe05dcb4	-0.13072473
23	0x3d8d4675	0.06898204
24	0xbdfc1853	-0.12309327
25	0xbdfc5fe8	-0.1232298
26	0xbd9b21b0	-0.07574785
27	0xbdc75f08	-0.09734923
28	0xbd35eef1	-0.044417325
29	0xbb96b4f5	-0.0045992085
30	0xbe3f1e3b	-0.18663876
31	0xbe13eed7	-0.14446579
32	0x3baab4b7	0.005209531
33	0xbd8b759a	-0.0680954
34	0x3c6ebeb4	0.014571834
35	0x3c956209	0.018235223
36	0xbe23815c	-0.15967315
37	0xbc9950f5	-0.018715361
38	0x3d322a59	0.043497417
39	0xbe25e444	-0.16200358
40	0xbdb42691	-0.087964185
41	0xbde2eeb2	-0.11080684
42	0xbe5b41ce	-0.21411821
43	0xbe1dd18e	-0.1541197
44	0xbd4ac4b2	-0.04950399
45	0xbd938776	-0.072035715
46	0xbe0254c9	-0.12727655
47	0xbc59d386	-0.01329506
48	0xbe055f79	-0.13024701
49	0xbe2f237f	-0.17103384
50	0xbe2e1fb4	-0.17004281
51	0x3b1f3487	0.0024292783
52	0xbb5e5270	-0.0033923648
53	0x3d51fa68	0.051264197
54	0xbce00480	-0.027345896
55	0xbdd5fe85	-0.104489364
56	0xbd49655a	-0.049168922
57	0xbd2d63aa	-0.042331375
58	0xbdc2fc25	-0.09520749
59	0xbe1da4ed	-0.15394945
60	0x3d101edc	0.03518568
61	0x3d6d4bb2	0.057933517
62	0xbd6bed63	-0.057599436
63	0x3d810ec2	0.06301643
64	0x3d7add42	0.061246164
65	0x3dbe1d53	0.09282937
66	0x3ca44ba7	0.020055605
67	0xbd084c7e	-0.033276074
68	0x3c41962b	0.011815588
69	0xbda3de49	-0.08001382
70	0x3c22e4d1	0.009942249
71	0xbd976926	-0.07393102
72	0x3dd6f089	0.10495097
73	0x3d745fb9	0.0596616
74	0x3d025d45	0.03182723
75	0x3e07978f	0.13241409
76	0x3d2c5294	0.04207094
77	0x3d94c434	0.07263985
78	0x3d958e4e	0.07302533
79	0xbcad4765	-0.021152208
80	0x3d312577	0.04324862
81	0xbd90c3aa	-0.0706857
82	0xbdc6d6ea	-0.0970896
83	0xbd45b670	-0.04826969
84	0xbdf80e61	-0.121121176
85	0xbd72763f	-0.0591948
86	0xbd3a017d	-0.045411576
87	0x3dbae007	0.09124761
88	0x3cf4e7ac	0.029895626
89	0x3c935daf	0.017989008
90	0xbd2f72c3	-0.042834055
91	0xbc340f7c	-0.01099002
92	0x3ca6f713	0.020381486
93	0xbdeb1664	-0.1147888
94	0xbdf9a0bc	-0.12188861
95	0xbe23d856	-0.16000494
96	0xbd73b641	-0.059499983
97	0x3d3dd89f	0.046349164
98	0x3e176691	0.1478522
99	0xbe18d5fa	-0.14925376
100	0xbd3b6083	-0.045746338
101	0xbc5c71e5	-0.013454889
102	0xbce8d5b1	-0.028422209
103	0xbd43c68b	-0.047796767
104	0x3ce89aa5	0.028394053
105	0x3d9bcd97	0.076075725
106	0xbd605588	-0.05476907
107	0x3c56d0f5	0.013111343
108	0xbe24a206	-0.16077432
109	0xbd8ce405	-0.06879429
110	0x3b9d28c2	0.0047961185
111	0xbe5a4da5	-0.21318682
112	0xbde0da56	-0.10979144
113	0xbe12539a	-0.14289704
114	0xbdfcb781	-0.12339688
115	0xbdd582ed	-0.10425363
116	0xbdaa092a	-0.08302529
117	0xbddeb292	-0.10873903
118	0xbd5fd08f	-0.054642256
119	0x3dbadc5f	0.09124064
120	0xbd9d35c5	-0.07676271
121	0xbda5289c	-0.08064386
122	0xbdb3f734	-0.08787385
123	0xbe201150	-0.15631604
124	0xbdcd36cf	-0.100202195
125	0xbd5d2e71	-0.053999368
126	0x3c955b0f	0.018231897
127	0xbc2a2de1	-0.010386915
128	0x3d58bbbb	0.05291341
129	0xbdb820a1	-0.089905985
130	0xbab5cad9	-0.0013869657
131	0xbc2aab57	-0.010416827
132	0x3d0d519b	0.034501653
133	0x3d634c26	0.055492543
134	0x3bcf9334	0.0063346867
135	0xbe21038d	-0.15724011
136	0xbd8d7af7	-0.06908219
137	0x3cc9f2da	0.024651933
138	0xbe51da12	-0.20493343
139	0xbddf3cc7	-0.10900264
140	0x3c58efdf	0.0132407835
141	0x3d11df0a	0.035613097
142	0x3cca1b35	0.024671176
143	0x3d9dd2af	0.077062
144	0xbe2907ec	-0.16506928
145	0xbd2ccbbf	-0.042186495
146	0xbc6924fe	-0.014230011
147	0xbe07ba8d	-0.13254757
148	0xbdf1bf3a	-0.11804052
149	0xbdb82a7e	-0.0899248
150	0xbcbcb022	-0.023033205
151	0xbb858d9e	-0.00407572
152	0x3d923182	0.07138349
153	0x3d73d8d3	0.05953295
154	0x3ccce18d	0.025009895
155	0x3e622dfb	0.22087853
156	0x3d6daa79	0.058023904
157	0x3d467222	0.04844869
158	0x3dcb9b85	0.09941772
159	0x3d84dd51	0.06487525
160	0x3d4cb2c0	0.049975157
161	0x3d166ba4	0.036723748
162	0xbb83cd05	-0.004022243
163	0x3c02dd1a	0.007987285
164	0xbd88f841	-0.06687976
165	0xbda9515b	-0.082674704
166	0xbdeee9b1	-0.11665667
167	0xbdd704d8	-0.10498971
168	0x3d06a459	0.032871578
169	0x3ba293e3	0.004961477
170	0xbc976074	-0.01847861
171	0xbde52094	-0.111878544
172	0xbd4527cf	-0.048133668
173	0x3d32ed30	0.04368323
174	0xbe856844	-0.2605611
175	0xbe450c1a	-0.19242898
176	0xbd505ee3	-0.05087174
177	0xbd55d2c3	-0.05220295
178	0xbdb6d02e	-0.08926426
179	0xbcae269f	-0.02125865
180	0x3c297757	0.010343394
181	0xbd49f353	-0.049304318
182	0xbc61dfa5	-0.013786231
183	0xbe2f3fa8	-0.17114127
184	0xbe0b6649	-0.13613237
185	0x3cdbac53	0.026815569
186	0x3c158ec5	0.009128277
187	0xbd42a768	-0.047522932
188	0xbd361300	-0.044451714
189	0xbdc50504	-0.09620097
190	0xbdb66361	-0.08905674
191	0x3c8a270b	0.01686432
192	0xbdfd7be5	-0.12377147
193	0xbdacee51	-0.08443893
194	0xbd0e7746	-0.034781717
195	0xbe233bb6	-0.15940747
196	0xbdf1a090	-0.11798203
197	0x3c802b6f	0.01564571
198	0xbdb916e0	-0.09037566
199	0xbc755efa	-0.014976257
200	0xbd10d80e	-0.035362296
201	0xbcb8984f	-0.022533564
202	0xbdd14d03	-0.10219767
203	0x3d18fa6e	0.037348203
204	0xbe39f763	-0.18160777
205	0xbe38ccf3	-0.18046932
206	0xbdf87cf9	-0.12133212
207	0xbdd0d11f	-0.10196137
208	0x3d670598	0.05640182
209	0x3e63c022	0.22241262
210	0xbd9ff802	-0.078109756
211	0xbe0da945	-0.13834102
212	0xbc10581b	-0.0088100685
213	0xbd92014b	-0.07129153
214	0x3d1866f4	0.03720756
215	0x3c5b51d0	0.013386205
216	0x3daa67a6	0.083205506
217	0x3e0c4376	0.1369761
218	0x3d1957dc	0.037437305
219	0x3c8aecb8	0.01695858
220	0xbbc5937c	-0.0060295444
221	0x3d726ede	0.059187762
222	0xbd0c8cdc	-0.03431402
223	0x39444f73	0.00018721614
224	0xbcda78fd	-0.02666902
225	0xbdf5745f	-0.11985087
226	0x3cccf4fe	0.025019165
227	0x3d88a6c3	0.06672432
228	0xbdcb9069	-0.099396534
229	0xbcc5414c	-0.024078988
230	0x3ce0242a	0.027360994
231	0xbe0d782e	-0.13815376
232	0xbdd27e8b	-0.102780424
233	0x3cf2bb2f	0.029630272
234	0xbd7a0475	-0.061039407
235	0x3bca9091	0.0061817844
236	0xbc5c5f08	-0.013450392
237	0xbd7d86c5	-0.061896104
238	0xbd4dd184	-0.050248638
239	0xbb74b193	-0.0037337288
240	0xbe801003	-0.25012216
241	0xbe8742b9	-0.26418093
242	0xbd85935e	-0.06522249
243	0xbdb20be7	-0.086936764
244	0xbd391187	-0.04518273
245	0xbe3cfb5d	-0.18455262
246	0xbdafefc4	-0.085906535
247	0xbcf0726e	-0.02935144
248	0xbdaa7a40	-0.083240986
249	0xbda8e302	-0.08246423
250	0xbc347af5	-0.011015643
251	0xbd032c68	-0.03202477
252	0xbd79bdca	-0.060972013
253	0xbc2b20b3	-0.010444808
254	0x3c91f447	0.017816676
255	0xbd837b34	-0.064199835

features.9.bias f4 [32]
0	0xba14faa9	-0.0005683103
1	0x3c2f5442	0.010701241
2	0x3c6e171f	0.01453188
3	0xbd1f0df0	-0.03883165
4	0xbc8febb3	-0.017568445
5	0xbca6b015	-0.020347634
6	0x3d141b95	0.036159117
7	0x3bd30993	0.0064403503
8	0x3cd0a1f0	0.025467843
9	0x3d4ba82a	0.04972092
10	0x3d23e89a	0.040016748
11	0x3d8ee3f4	0.06977072
12	0x3cd8e756	0.026477497
13	0x3bcfa7f1	0.006337159
14	0xbcf16d67	-0.029471112
15	0x3cca56c4	0.024699576
16	0xbd75710f	-0.059922274
17	0xbd53a1da	-0.051668026
18	0xbbb7c331	-0.0056079854
19	0xbc320fff	-0.010868072
20	0xbc8786de	-0.016543802
21	0x3d0eafc2	0.034835584
22	0xbd09adf5	-0.033613164
23	0x3d1ba386	0.037997745
24	0x3d1bacf7	0.03800675
25	0x3ca54803	0.02017594
26	0xbc8372ff	-0.016046045
27	0xbd54c65c	-0.051946983
28	0xbb925e40	-0.004466802
29	0x3d3f989e	0.046776406
30	0x3c12424c	0.008926939
31	0x3d8a1539	0.06742329

features.11.weight f4 [32]
0	0x3f5a7eeb	0.8534991
1	0x3f7daa55	0.9908803
2	0x3f720fe6	0.9455551
3	0x3f7df45e	0.99201
4	0x3f87c8c9	1.060815
5	0x3f892dc6	1.0717094
6	0x3f743bc8	0.9540372
7	0x3f8082ef	1.0039958
8	0x3f766c04	0.9625857
9	0x3f682ce6	0.9069351
10	0x3f7c5893	0.98572654
11	0x3f817750	1.0114536
12	0x3f8347e1	1.0256311
13	0x3f7f10a7	0.99634784
14	0x3f6166a5	0.8804725
15	0x3f860fa5	1.0473524
16	0x3f5bb15a	0.8581749
17	0x3f824163	1.0176204
18	0x3f5cd65b	0.8626458
19	0x3f83ec20	1.0306435
20	0x3f8a2ecc	1.0795531
21	0x3f81433d	1.0098644
22	0x3f8780ae	1.0586145
23	0x3f8138dd	1.0095478
24	0x3f8147d2	1.0100043
25	0x3f845103	1.0337223
26	0x3f862556	1.0480144
27	0x3f747ac0	0.954998
28	0x3f80260a	1.0011609
29	0x3f4cdcfb	0.8002469
30	0x3f5b3d34	0.85640264
31	0x3f912d73	1.1341995

features.11.bias f4 [32]
0	0x3c7908b8	0.015199833
1	0x3cfad462	0.03061885
2	0xbbaae108	-0.005214814
3	0xba89de3e	-0.0010518504
4	0xba472e3b	-0.00075981364
5	0x3aca2911	0.0015423616
6	0x3c2d6697	0.010583541
7	0x3d0c6e42	0.034284838
8	0x3c309103	0.010776761
9	0xbc446536	-0.011987021
10	0xbc200383	-0.009766462
11	0x3c3691a1	0.011143119
12	0x3c60ab2b	0.013712685
13	0x3cc68f89	0.024238365
14	0x3cb6fa1d	0.02233606
15	0x3c6685cf	0.014069988
16	0x3c6f1c1c	0.014594104
17	0xbc112939	-0.008859926
18	0xb885cf9e	-6.380606e-05
19	0xbc0852af	-0.008320495
20	0x3bca7f16	0.0061797006
21	0xbcb69e53	-0.022292292
22	0x3d407dc4	0.04699494
23	0x3c66262c	0.014047187
24	0xbcb5b019	-0.022178696
25	0x3d4b11df	0.04957759
26	0xbbf68e2a	-0.0075242715
27	0xbcb94aff	-0.022618769
28	0xbd34425d	-0.0440086
29	0xbb69811f	-0.003562994
30	0xbb315336	-0.0027057654
31	0xbd0adf21	-0.0339042

features.11.running_mean f4 [32]
0	0x3ef979c2	0.48725706
1	0x4040ffac	3.015605
2	0x404c6767	3.1938112
3	0x40038d61	2.055504
4	0x40634635	3.55116
5	0x400b49c7	2.176378
6	0x4047ba61	3.1207507
7	0x3ffc27d5	1.9699656
8	0x4048f1ef	3.1397665
9	0x400941dc	2.1446447
10	0x4041079a	3.016089
11	0x3fc14f2f	1.510229
12	0x40166c29	2.3503516
13	0x3f5c6180	0.86086273
14	0x4045de26	3.0916839
15	0x400bc013	2.1835983
16	0x3f9dd3d7	1.2330273
17	0x403d54f5	2.9583104
18	0x4010a0b7	2.2598093
19	0x3fed6697	1.8546933
20	0x400560aa	2.084025
21	0x3fc6b97c	1.5525355
22	0x3fa12d24	1.2591901
23	0x403d8c03	2.9616706
24	0x40434e8b	3.051669
25	0x3fdeaff1	1.7397443
26	0x402e77a6	2.7260528
27	0x4072295d	3.7837746
28	0x4046b73b	3.1049335
29	0x3ff22ddc	1.8920245
30	0x3f8e5960	1.1121025
31	0x402c83c9	2.6955435

features.11.running_var f4 [32]
0	0x41cda11e	25.70367
1	0x4232860a	44.630898
2	0x418d0e9c	17.632133
3	0x422b1bc6	42.777122
4	0x42e1681a	112.70332
5	0x41f6f1ba	30.86803
6	0x419f2575	19.89329
7	0x42866c3f	67.21142
8	0x41b8934e	23.071926
9	0x41f39080	30.445557
10	0x422c55dd	43.08385
11	0x41e86669	29.050005
12	0x41c83d76	25.03001
13	0x4152c75e	13.173674
14	0x42497440	50.363525
15	0x412e63c5	10.899358
16	0x419155b6	18.166851
17	0x42b220a8	89.06378
18	0x4251db50	52.464172
19	0x4205e193	33.470287
20	0x424aa297	50.65878
21	0x41b47326	22.556225
22	0x4208da87	34.213406
23	0x41fbd9b8	31.481308
24	0x41e3e257	28.485518
25	0x41cb5c61	25.420107
26	0x4214a432	37.160347
27	0x423a8f55	46.639973
28	0x419fcdfe	19.975582
29	0x41c542a9	24.657549
30	0x4162347c	14.137814
31	0x42c4a375	98.31925

last.0.weight f4 [16, 32, 1, 1]
0	0x3d453220	0.048143506
1	0x3dd6616c	0.104678005
2	0x3dea7f0d	0.11450014
3	0x3d51fcc0	0.05126643
4	0xbd95ce83	-0.073147796
5	0xbdb39efc	-0.08770558
6	0xbdb2b1c1	-0.0872531
7	0xbd87cddd	-0.06631062
8	0x3e5f4e69	0.21807255
9	0x3e1fb8a4	0.15597779
10	0x3dfa9668	0.12235719
11	0xbe21e22f	-0.15808938
12	0x3d5dc0a8	0.05413881
13	0xbdb65fe8	-0.089050114
14	0x3dde3d7b	0.1085157
15	0xbdfd5780	-0.12370205
16	0xbae46dfc	-0.0017427797
17	0xbdd5937a	-0.104285195
18	0x3bec943c	0.0072198194
19	0xbe1a6f22	-0.15081456
20	0xbe586025	-0.21130426
21	0xbdf58f3f	-0.11990213
22	0xbe20d1fc	-0.15705103
23	0xbd25df81	-0.040496353
24	0x3e05325c	0.13007492
25	0xbe48aada	-0.19596425
26	0xbd49d1aa	-0.049272217
27	0x3d887bbb	0.06664225
28	0x3e39ec54	0.18156558
29	0x3d9cbee2	0.076535955
30	0x3bf6b9e3	0.0075294836
31	0xbeaf4c7f	-0.3423805
32	0x3bfc02b3	0.0076907515
33	0x3e2754b6	0.16340908
34	0x3e2cb75a	0.16866818
35	0x3e5ec2ee	0.21754047
36	0xbd2682cb	-0.040652078
37	0x3e56b21f	0.20966385
38	0xbcb1c920	-0.02170235
39	0x3dd17e31	0.10229147
40	0x3d49296b	0.049111765
41	0xbc0c935e	-0.008580057
42	0x3e345e46	0.17614087
43	0xbdbf5c31	-0.09343756
44	0x3e2ae6d4	0.16689616
45	0xbd97f6f6	-0.07420151
46	0xbda139dc	-0.07872364
47	0xbe0d1c67	-0.13780366
48	0xbe85faf5	-0.26168028
49	0x3dcfa253	0.10138383
50	0xbd9431b7	-0.07236045
51	0x3e393f12	0.18090466
52	0x3c504af3	0.012713182
53	0x3e2b9f48	0.1675998
54	0x3d9b522d	0.07584033
55	0xbde63ef9	-0.1124248
56	0xbd61ddd7	-0.055143204
57	0x3e72dbee	0.23716709
58	0xbdc19f7c	-0.09454247
59	0xb9a770e1	-0.00031936824
60	0x3e4c819d	0.19971319
61	0x3e001aa7	0.12510167
62	0xbe3e52eb	-0.18586318
63	0x3e246c83	0.16057019
64	0x3d7b4bf8	0.061351746
65	0xbe511fc4	-0.20422274
66	0xbc6f12dd	-0.0145919
67	0x3defa5ae	0.11701523
68	0x3de2ce45	0.11074499
69	0xbdf27684	-0.11839011
70	0xbe8b555f	-0.2721357
71	0x3d36f6fb	0.044669133
72	0xbe03d90f	-0.1287577
73	0xbe20fae0	-0.15720701
74	0xbe969183	-0.29407892
75	0x3ceba0f4	0.028763272
76	0x3e1d2ec6	0.15349874
77	0xbe1320d4	-0.14367992
78	0xbd398739	-0.045294974
79	0xbc4f0b49	-0.012636968
80	0x3c014c11	0.007891671
81	0x3e273552	0.16328934
82	0x3e1e25d1	0.15444113
83	0xbb81622b	-0.00394847
84	0xbd48fdeb	-0.04907028
85	0xbd9a784f	-0.07542478
86	0x3e64691c	0.22305721
87	0xbb416091	-0.002950702
88	0xbdf636c8	-0.120221674
89	0xbdc8c501	-0.098032005
90	0xbdbdeae4	-0.092733175
91	0xbd8ce56f	-0.068796985
92	0x3d172c3b	0.036907416
93	0xbdb4cc89	-0.088280745
94	0x3e222e1e	0.15837905
95	0xbd93baee	-0.072133884
96	0xbdd6df7c	-0.10491845
97	0x3bf839b3	0.0075752377
98	0x3ba580ab	0.005050739
99	0xbd9845f2	-0.07435216
100	0x3e8847cb	0.26617274
101	0x3df7746d	0.12082753
102	0xbdacf750	-0.084456086
103	0x3db79bcd	0.089652635
104	0xbe156ca8	-0.1459223
105	0x3db59ec0	0.0886817
106	0x3e1688d7	0.14700638
107	0x3d52dd82	0.051480778
108	0xbc199d7f	-0.009375929
109	0x3e47dc73	0.19517688
110	0x3e731dbe	0.23741814
111	0xbe50950a	-0.20369354
112	0xbd3c4844	-0.045967355
113	0x3dddb97b	0.10826393
114	0x3df0d50c	0.117593855
115	0x3e4b7a3c	0.19870847
116	0xbd92e643	-0.07172825
117	0x3e33c983	0.1755734
118	0x3d04ba63	0.032404315
119	0x3e10f1de	0.14154765
120	0x3d2aa1f1	0.041658346
121	0xbd546e6d	-0.051863123
122	0x3e5a3607	0.21309672
123	0x3d21a867	0.03946724
124	0x3e45ed3a	0.19328776
125	0xbdcc4bf0	-0.099754214
126	0x3d7e0b5c	0.062022552
127	0x3dccea12	0.10005583
128	0xbd378ebb	-0.044813853
129	0xbd958779	-0.0730123
130	0xbde2ee11	-0.11080564
131	0x3e3580ae	0.17724869
132	0xbd1b916a	-0.037980475
133	0x3e7d5db2	0.24742773
134	0xbdbe4753	-0.09290948
135	0x3e7d440b	0.24732988
136	0x3d868999	0.065692134
137	0xbc54f6a1	-0.012998254
138	0xbd5ec90f	-0.054390963
139	0x3d9846a9	0.07435352
140	0x3d9366c6	0.07197337
141	0x3e09bf4a	0.13451877
142	0xb9fa87b2	-0.00047784817
143	0xbe4381c0	-0.19092464
144	0xbddad0a2	-0.10684325
145	0x3e007618	0.12545049
146	0xbde9f03d	-0.11422775
147	0x3dfb118d	0.12259207
148	0x3d136e40	0.035993814
149	0x3e918860	0.28424358
150	0x3df03966	0.11729698
151	0x3d6aa6c1	0.057287935
152	0x3de83d1d	0.113397814
153	0x3d4ee219	0.050508592
154	0xbe3fa931	-0.18716885
155	0x3d4efbfb	0.050533276
156	0x3d1ded9d	0.038556684
157	0xbe3c1798	-0.18368375
158	0xbc895bb5	-0.016767362
159	0xbb339a8f	-0.0027405357
160	0xbc9fa357	-0.019487066
161	0xbe08483c	-0.13308805
162	0xbd8fdc76	-0.070244715
163	0x3e006149	0.12537111
164	0x3da584b1	0.080819495
165	0x3c8992ca	0.016793627
166	0xbdbb6de3	-0.091518186
167	0xba4ebedb	-0.0007886716
168	0xbdc3e280	-0.09564686
169	0xbd8cdaea	-0.06877692
170	0xbdc4f1e4	-0.096164495
171	0x3e7d9875	0.24765189
172	0x3e76aa3f	0.24088381
173	0x3e75176a	0.23934713
174	0xbe105639	-0.14095391
175	0x3d9e60a8	0.077332795
176	0xbca15e32	-0.019698236
177	0x3cca7d21	0.02471787
178	0x3da8b9ea	0.08238585
179	0x3d9b8af7	0.07594865
180	0x3deb3113	0.114839695
181	0x3d9860a4	0.07440308
182	0x3e8c7896	0.2743575
183	0xbe0427c0	-0.12905788
184	0xbe2b7d6e	-0.16747066
185	0xbd421aab	-0.047388714
186	0x3d4d5ac6	0.050135396
187	0x3dcae0c2	0.099061504
188	0xbe1cba63	-0.15305476
189	0x3dc1e306	0.094671294
190	0xbcc0a77a	-0.023517359
191	0x3e7952b1	0.2434795
192	0x3d458a24	0.048227444
193	0x3c2c8ba0	0.010531336
194	0xbd4773e9	-0.048694525
195	0xbd32a73f	-0.04361653
196	0xbe28be70	-0.16478896
197	0xbe2e0c92	-0.16996983
198	0xbd90762e	-0.07053791
199	0x3d4cbdfa	0.049985863
200	0xbe03c3db	-0.12867682
201	0xbe2b24f1	-0.16713311
202	0xbd720895	-0.059090216
203	0x3d05b414	0.03264244
204	0xbd9f7d47	-0.07787567
205	0xbe017860	-0.12643576
206	0xbd822e43	-0.0635648
207	0x3e06055e	0.13087985
208	0xbcf5b0b7	-0.02999149
209	0xbd7fa95d	-0.062417377
210	0xbdd88be6	-0.105735585
211	0x3e20df5f	0.1571021
212	0x3ddb1c79	0.1069879
213	0x3c2d1e97	0.010566375
214	0xbd0f017b	-0.03491352
215	0xbe4afdf2	-0.19823435
216	0xbe4b1c0d	-0.1983492
217	0xbe11285e	-0.14175555
218	0xbe467db0	-0.19383883
219	0xbe7d7a31	-0.24753644
220	0xbd934e73	-0.071926974
221	0x3ce2ccd7	0.027685566
222	0x3e66c924	0.22537667
223	0x3de4372b	0.11143335
224	0xbd259789	-0.04042772
225	0x3e86eda3	0.26353177
226	0x3e2a645d	0.16639848
227	0x3e03820f	0.12842582
228	0x3dd0b7de	0.1019132
229	0x3e51e7d3	0.2049859
230	0x3e2cc06e	0.16870281
231	0xbdec3015	-0.115326084
232	0x3d9a25ae	0.07526718
233	0x3d0222bb	0.031771403
234	0x3e4971ad	0.1967227
235	0xbd66274a	-0.056189813
236	0xbc0d4778	-0.0086229965
237	0xbe1f347a	-0.15547362
238	0x3e0c9240	0.13727665
239	0xbe5fd10c	-0.21857089
240	0xbe25d5be	-0.16194817
241	0x3e4ef06a	0.20208898
242	0xbd860ea3	-0.065457605
243	0xbdb694e8	-0.0891512
244	0x3db3298a	0.08748157
245	0xbd19b4fa	-0.03752611
246	0xbd2ad158	-0.041703552
247	0x3e3831b6	0.17987713
248	0x3e9b9cca	0.30393058
249	0x3dda4df4	0.106594
250	0x3e8a5e44	0.27025044
251	0x3e00ee5a	0.12590924
252	0x3e759bc8	0.23985207
253	0x3ddb7a39	0.107166715
254	0x3c95a5f0	0.018267602
255	0x3e38440c	0.17994708

last.0.bias f4 [16]
0	0xbdc4e888	-0.09614664
1	0x3dbd3a76	0.09239666
2	0x3db894ba	0.09012742
3	0xbddba4ee	-0.10724817
4	0xbdf9e3e6	-0.12201671
5	0x3d9878d6	0.074449226
6	0xbde9ac57	-0.11409824
7	0x3d4eea6c	0.05051653
8	0xbc72e9f2	-0.014826285
9	0x3cef9fdf	0.029251037
10	0x3b1bcb28	0.0023772214
11	0x3c49a8b2	0.0123082865
12	0x3e8099f9	0.25117472
13	0xbd8d7f80	-0.06909084
14	0x3deb8d58	0.115015686
15	0xbd9dc80c	-0.077041715

last.1.weight f4 [16]
0	0x3f80bc4a	1.0057461
1	0x3f6c41be	0.92287815
2	0x3ef890c2	0.4854794
3	0x3f797b36	0.9745363
4	0x3f7692ee	0.96317947
5	0x3f7cfbf7	0.9882197
6	0x3f62dfea	0.88622916
7	0x3f7c3cc3	0.98530215
8	0x3f51def9	0.81980854
9	0x3e6042f7	0.21900545
10	0x3f750685	0.95713073
11	0x3f2ad49a	0.66730654
12	0x3f7ea1b9	0.9946552
13	0x3f6b0a7f	0.9181289
14	0x3f7e06ff	0.99229425
15	0x3f62cdf4	0.8859551

last.1.bias f4 [16]
0	0x3db4d540	0.08829737
1	0xbdb43bdc	-0.0880048
2	0xbdd49af9	-0.10381121
3	0xbda95b50	-0.082693696
4	0xbdb33372	-0.08750047
5	0xbdb0f086	-0.08639626
6	0xbd602eb1	-0.05473203
7	0x3da5622c	0.080753654
8	0x3d9529ee	0.07283388
9	0xbd9438ca	-0.07237394
10	0xbdc119cc	-0.094287485
11	0xbda821f7	-0.08209603
12	0xbdabd3cd	-0.08390007
13	0xbde447db	-0.11146518
14	0x3d9f7848	0.07786614
15	0xbd94d184	-0.072665244

last.1.running_mean f4 [16]
0	0xbde9dafb	-0.1141872
1	0x3db0d2fe	0.086339936
2	0x3dc3ab73	0.09554186
3	0xbdff5a23	-0.12468364
4	0xbdef9b94	-0.11699596
5	0x3daf9fc1	0.085753925
6	0xbdeddc50	-0.11614287
7	0x3cc5c778	0.024142966
8	0x3acfd54b	0.0015856413
9	0x3d58909f	0.052872296
10	0x3bf90c3f	0.007600337
11	0x3d1e2929	0.038613472
12	0x3e8ef737	0.27922985
13	0xbd1fade8	-0.03898421
14	0x3de92797	0.11384504
15	0xbd9712eb	-0.07376655

last.1.running_var f4 [16]
0	0x40246cfe	2.5691524
1	0x40696c35	3.6472294
2	0x3f742fdd	0.95385534
3	0x404bf069	3.1865485
4	0x401ae164	2.4200068
5	0x40480399	3.1252196
6	0x40147023	2.3193443
7	0x40d38f5a	6.611249
8	0x3fa1f02c	1.265142
9	0x400fe5f4	2.2484102
10	0x40201864	2.5014887
11	0x401689e4	2.3521662
12	0x409bd0b6	4.8692274
13	0x3fad81cd	1.3555237
14	0x407ad470	3.9192162
15	0x403da49f	2.9631727
